lab5/LAB5_110550161_task1_cartpole.pt (torch, 72422 bytes, 6 tensors)

network.0.weight f4 [128, 4]
000000 07 ff f1 3f 27 40 40 3f 74 10 07 3f 67 c4 5a bf
       1.8905953 0.7509789 0.5275948 -0.85455936
000010 3c 9f bd bf 12 00 39 3f dd 06 c6 3f 42 a7 16 bf
       -1.481422 0.7226573 1.5470845 -0.58848965
000020 44 f7 8a bf aa 43 a7 bf cf a3 9f be f2 1e 75 bf
       -1.085671 -1.3067524 -0.31179664 -0.95750344
000030 3e bc fd 3f b2 f2 d3 3e 1c a5 18 bf 88 4a 62 bf
       1.9823072 0.413961 -0.59626937 -0.88394976
000040 4d da 09 3f e4 6f d6 3f 72 b1 12 40 18 ab 95 3f
       0.53848726 1.6752896 2.2920804 1.1692839
000050 cf 87 57 bf 5d 90 3d bf bc 22 64 3f 6b 37 a9 3f
       -0.841916 -0.74048406 0.891155 1.3220037
000060 a3 aa 58 bf 09 df b6 3d ef c5 6f be 85 60 4c bd
       -0.8463537 0.08929259 -0.2341535 -0.049896736
000070 c0 0a 3b bf 1e 4a 10 3e 98 9f 70 3f 27 82 0d 3e
       -0.7306328 0.14090773 0.9399352 0.1381918
000080 e1 8a a7 3e 71 95 3d bf cd 2f d9 be 62 4a f8 be
       0.32723144 -0.74056154 -0.42419282 -0.4849425
000090 0c 4f ad be 84 eb a2 bf 58 25 fc bf 36 05 fc bd
       -0.3384937 -1.2728124 -1.9698896 -0.123056814
0000a0 5d 10 84 3e b1 49 80 3f fa 2a d5 3f 44 5f e1 3e
       0.25793734 1.0022489 1.665374 0.44017994
0000b0 ee a6 a9 bf 65 e6 28 3e 21 cb 5d 40 30 a7 5e 3f
       -1.3254068 0.16494139 3.465523 0.8697386
0000c0 a6 20 f0 3e af df ed be 83 6b 68 bf ca 67 1d be
       0.4689991 -0.4645972 -0.9078905 -0.15371624
0000d0 36 16 85 bf 1f 0e bc 3f 95 5f f8 3f 57 b6 8f be
       -1.0397403 1.469181 1.9404169 -0.28068802
0000e0 b7 5a 04 be 59 fc df 3f ba ed a8 3f 81 ba 51 bf
       -0.1292523 1.7498885 1.3197548 -0.8192521
0000f0 d1 6e 92 bf b2 da 6b 3f 19 db f9 3d 98 d6 aa 3e
       -1.1440068 0.9213058 0.12199993 0.33366847
000100 8b ec dc 3e 12 81 47 3e 66 87 35 3f 9a 3f a3 3e
       0.43149218 0.1948283 0.70909727 0.31884462
000110 d1 c7 cf 3e 8f 4f eb be 89 04 03 c0 cd fa 81 bf
       0.40582135 -0.45959136 -2.0471518 -1.0154663
000120 88 03 88 bf ef a8 4e 3f 2a 87 a9 bf 54 16 58 3f
       -1.0626078 0.8072652 -1.3244374 0.8440907
000130 2a 81 4c 3e 00 26 10 3f 71 a6 90 3f 1f 1c e9 3e
       0.19971147 0.56307983 1.1300794 0.45529267
000140 d7 08 ba bf 68 29 4c bf ee 3d d8 bf 07 44 6d bf
       -1.4533948 -0.7975068 -1.68939 -0.92681926
000150 c8 e9 b9 bf ad 10 55 bf 9a 7c de bf ad ea 81 bd
       -1.4524469 -0.8322857 -1.7381775 -0.06343589
000160 01 90 b7 bf e5 a1 65 bf ea 4a 49 3f d7 66 1d bf
       -1.4340822 -0.89700156 0.78629935 -0.61485046
000170 50 78 e9 3f 08 89 b0 3f e7 f6 eb 3f c7 49 4c 3f
       1.8239841 1.3791819 1.8434724 0.79800075
000180 75 2d 3e 3f b0 3b 91 bf 1f fc 55 bf 00 5e ed be
       0.7428811 -1.134634 -0.8358783 -0.4636078
000190 ec a4 b2 3f cd 21 9e be a9 0a 79 bf ac 9e 39 bf
       1.395658 -0.30885163 -0.9728189 -0.7250774
0001a0 d3 24 be bd dd 5c d2 3f 0e b5 fc 3f 7a ec 55 3f
       -0.092843674 1.643459 1.9742754 0.8356396
0001b0 f4 38 08 3e b2 11 9b bf 7e 2b bf bd 5b 30 5d bf
       0.13302976 -1.2114775 -0.09334467 -0.8640191
0001c0 7a 93 ac be c5 cf 83 3e 08 d4 cb bf 4e 68 a1 bf
       -0.33706266 0.25744453 -1.5924082 -1.2609956
0001d0 f5 e1 39 bf f2 f1 7c bf f2 8b 2e bf 39 35 35 bf
       -0.7261041 -0.9880668 -0.6818229 -0.70784336
0001e0 28 dd 23 3e 0f 79 1c bf 0e c3 03 40 1b 33 85 bd
       0.16002333 -0.6112222 2.0587802 -0.06503888
0001f0 41 a5 86 bf d4 e2 9a bf 23 89 9e bc c0 84 07 3d
       -1.0519181 -1.2100472 -0.019352501 0.033085585
000200 de 4f 18 bf 8f 90 ae 3e ab 37 0c 40 58 3c 8a 3f
       -0.5949687 0.34094664 2.1908977 1.0799665
000210 da c6 cf 39 87 4b cd 3f 44 77 90 bf de ff 79 3f
       0.00039630273 1.6038674 -1.1286397 0.9765605
000220 f8 d9 d9 be 20 fd 86 bf 24 ac d4 3d 10 aa 43 bf
       -0.4254911 -1.0545998 0.10384396 -0.7643137
000230 34 66 bb bf 10 98 a4 bf 22 da a9 bf 1e a2 3b 3f
       -1.4640565 -1.2858906 -1.3269694 0.73294246
000240 7c 68 af 3e f0 cf 1c bf 04 7d 9e 3f b7 45 c8 be
       0.34259403 -0.6125479 1.2381902 -0.39115688
000250 f6 e9 14 3f db 72 fb bd 28 fc 31 40 c9 91 92 3e
       0.58169496 -0.12277766 2.7810154 0.2862685
000260 63 97 08 3f 31 bf 0a 3d 73 2b b7 bf 72 24 88 be
       0.53356 0.03387374 -1.4310135 -0.26590306
000270 7f cb af be 9a 1d f8 3e fe 80 1a 3d 12 2e b3 bf
       -0.34334943 0.48460084 0.037720673 -1.3998435
000280 c4 ef f6 3f 5e c6 a6 bd a3 e9 80 bf 35 7b c5 3b
       1.9291921 -0.08143304 -1.00713 0.0060266503
000290 18 c2 3a bf 3b 6e 84 3e 71 f4 0d bf 46 4d ab bf
       -0.72952414 0.2586535 -0.55451113 -1.3382957
0002a0 3b bd 78 bf 33 bf 89 bf 02 de 2b 3f 8f e5 c2 be
       -0.9716374 -1.0761474 0.6713563 -0.38065764
0002b0 8e bd 0a 3f 84 d8 8b bf 93 72 d9 bf c2 30 fa be
       0.5419549 -1.092545 -1.698809 -0.48865324
0002c0 48 db 54 3f 60 cb a3 3f 16 2c 37 40 32 9b 73 3f
       0.83147097 1.279644 2.8620658 0.95158684
0002d0 a5 fb d7 bf 65 64 8c bf cb 31 ae bf 3d 64 3a bf
       -1.6873671 -1.0968138 -1.3608946 -0.728092
0002e0 a8 e7 2e bf 40 b6 36 3f b5 e2 74 bf 81 18 e1 3e
       -0.6832223 0.7137184 -0.9565843 0.43964007
0002f0 36 d0 c5 bf c7 f6 26 3f 56 c4 6a 3f 3b 04 f4 be
       -1.5454166 0.652203 0.91705835 -0.47659478
000300 cf 0f c0 3f 50 81 82 bf 7a a1 81 bf e0 7e e0 be
       1.5004824 -1.0195713 -1.0127404 -0.43846798
000310 dc 37 92 bf e0 d8 61 bf df 6a eb 3e 24 c2 a9 3e
       -1.1423297 -0.8822155 0.45979974 0.3315593
000320 6f ea 91 3e 15 23 b8 3f b1 ed 99 3e f1 44 73 3f
       0.2849917 1.4385706 0.30064157 0.9502707
000330 a8 6d 85 bf 14 6b 66 3e e1 88 6b bf 96 5c 8a 3e
       -1.042409 0.22501785 -0.92005736 0.27023762
000340 9a a4 b6 be 2f 4c 05 3f ee ab 1b bf cb 09 75 bf
       -0.35672456 0.5206937 -0.6080922 -0.9571807
000350 01 34 97 bf 00 16 46 bf 00 19 56 bd b3 d0 95 3f
       -1.1812745 -0.7737732 -0.052269936 1.1704315
000360 58 9e 84 3e 40 75 b8 be 80 1e b3 bf dc c8 53 bf
       0.25902057 -0.36026955 -1.3993683 -0.8272836
000370 a1 af 71 bf b4 08 91 bf 96 ae 2a c0 15 99 3c bf
       -0.94408613 -1.1330781 -2.6669059 -0.73671085
000380 ae e9 cb 3f 04 1b 8d be 60 ca 56 bf 51 99 54 bf
       1.5930688 -0.27559674 -0.8390255 -0.8304644
000390 5e 45 59 3f 9d bf 81 3f e8 77 5a 3f fc ff 19 be
       0.8487147 1.0136601 0.8533921 -0.15039057
0003a0 f9 e9 a7 bf c1 91 6d 3d 31 be 39 3f 32 33 76 bf
       -1.3118278 0.05800033 0.72555834 -0.9617187
0003b0 f4 30 8c 3f b0 06 5c 3f f9 bd 7f bf ac ed 9a be
       1.0952439 0.85947704 -0.9989925 -0.30259454
0003c0 d8 62 a7 3f df a6 bd 3f f1 f6 07 3f 12 55 b8 3e
       1.307704 1.481655 0.5311118 0.36002403
0003d0 71 5b 54 bf ef 85 0c bf 68 14 a0 bf a4 68 83 bf
       -0.8295203 -0.54891866 -1.2506227 -1.0266309
0003e0 a0 ac 0e c0 bd 2a b4 bf ca f6 86 be 70 54 85 bf
       -2.2292862 -1.4075543 -0.2636016 -1.0416393
0003f0 0c a5 1e bf e1 24 ac 3f 8a 81 44 3f fd 48 96 3e
       -0.6197059 1.3448755 0.7676016 0.2935256

network.0.bias f4 [128]
000000 bd 84 d6 3e 88 a7 d7 3e 93 46 26 3f c0 46 0c bf
       0.41898146 0.42120004 0.6495144 -0.54795456
000010 3c c3 88 3e 78 8d 3a bf 68 e2 05 3f 14 a9 09 3f
       0.26711452 -0.72872114 0.52298594 0.5377362
000020 8e d0 06 3f 94 e6 37 3f 7c 00 db 3e b5 c0 ef be
       0.5266198 0.7183621 0.42773807 -0.4682671
000030 d6 28 0a 3f 16 38 36 3e 53 7c 11 bf ce d8 20 3f
       0.5396856 0.17794833 -0.5683033 0.6283082
000040 98 c9 47 3f 47 7d 14 3f 4b ae fa 3e 45 d6 35 3f
       0.7804198 0.5800366 0.489611 0.71030074
000050 5f 44 2a 3e 5e 99 1d 3f 81 67 d8 3d 3f fe ef 3c
       0.16627644 0.61562145 0.10566617 0.029296039
000060 e2 a9 02 3f 2d 5d 80 3e f0 6f e4 3e e9 94 19 3f
       0.5104047 0.25071087 0.44616652 0.59992844
000070 26 23 07 3f 19 b9 15 3f 12 04 00 3f 0b 92 86 3d
       0.5278801 0.5848556 0.5000621 0.06570824
000080 d2 29 31 bf 69 72 35 3e fa 7e 1a 3f c4 3d 60 bd
       -0.6920444 0.17719425 0.6035 -0.054746404
000090 df 9e f1 3e 2d fe 02 3f c8 60 bf be a6 71 f6 3e
       0.47191522 0.5116909 -0.37378526 0.48133582
0000a0 ae 99 bc 3e 1d 71 96 bb 88 73 b1 3e 81 da 1b 3f
       0.36835998 -0.004591121 0.34658456 0.60880286
0000b0 70 1e 20 3f b6 7a 4b 3f 4b 0f 07 3f 65 62 07 3f
       0.62546444 0.7948412 0.5275771 0.52884513
0000c0 19 f2 bd 3e bd c4 a3 3e b9 f2 e5 3e d4 d7 08 3f
       0.37098768 0.31986037 0.44911745 0.5345433
0000d0 28 69 f3 3e f0 a2 e4 be d5 60 ba 3e 28 28 55 3f
       0.47541165 -0.4465556 0.36402002 0.832644
0000e0 3f 3b b7 3d ff d7 27 3f 08 2a 3b 3f c7 b0 89 3f
       0.08946847 0.6556396 0.7311101 1.0757073
0000f0 ec 55 24 3f 69 88 14 bf f1 8b 58 3f cc b5 9a 3e
       0.64193606 -0.58020645 0.84588534 0.30216825
000100 9d 22 90 3e 84 e6 e9 be 3c 16 44 bf f9 53 04 3f
       0.28151408 -0.45683682 -0.76596427 0.5169063
000110 80 40 06 3f ea b4 39 3f 08 d4 81 3d 56 c7 17 3f
       0.5244217 0.7254168 0.0633927 0.5928854
000120 25 2f 38 3f fc 36 c0 3e b7 95 68 3e 72 da d7 3e
       0.71946937 0.3754195 0.22713362 0.42158848
000130 05 5b 8d be aa b8 88 3f f6 42 49 3f 9c 85 d9 3e
       -0.27608505 1.0681355 0.786178 0.42484748
000140 72 d8 c9 be d1 37 f2 3d b8 b9 2d 3f fa 5d d0 be
       -0.39422947 0.118270524 0.6786151 -0.40696698
000150 9b 08 49 3f 7d 06 84 bf ee f2 18 3f c8 ab 21 3f
       0.78528756 -1.031448 0.5974568 0.6315274
000160 c0 e1 af 3d 0c ba 2a 3f 5e ef 84 3f 93 cd c8 3e
       0.0858798 0.66690135 1.0385549 0.3921934
000170 f8 fd 85 3f 09 6b 2a 3e 11 f2 16 3f b6 88 02 3f
       1.046813 0.16642393 0.58963114 0.50989854
000180 39 d3 1e 3e 59 90 ef 3e ec 03 07 3f e1 f1 6d 3f
       0.15510263 0.46789816 0.5274036 0.929472
000190 24 9c 2e 3f 15 ae da be 77 47 16 3f 73 2a 29 bf
       0.68207 -0.4271094 0.58702797 -0.660804
0001a0 be 49 2b 3f 6c 6c 26 3f ea e6 25 3f 9c 91 00 3f
       0.66909397 0.6500919 0.6480547 0.5022218
0001b0 8f e3 15 3f e0 7f 84 3e b7 16 5d 3e ea 6c 1a 3f
       0.5855035 0.2587881 0.21590696 0.6032244
0001c0 55 ba 14 3f e0 ff b2 3e 32 2a 3b 3f 87 e4 0e 3f
       0.5809682 0.34960842 0.7311126 0.55817455
0001d0 57 4a f2 3c 29 7e 93 3d a8 fc 09 3f 40 c7 5a be
       0.029576464 0.072017975 0.5390115 -0.2136507
0001e0 6f 29 13 3f f1 bb 37 bd a7 30 0f 3f 0a 29 88 3e
       0.574851 -0.04485697 0.5593361 0.2659381
0001f0 83 ea 80 3f 2e 74 fb be 0a 33 a5 3d e4 02 89 3d
       1.0071567 -0.49112076 0.080663756 0.066900045

network.2.weight f4 [128, 128]
000000 cd 42 f1 bd 43 b5 f7 3e a5 b7 c3 3d 11 1f 83 be
       -0.11780319 0.4838048 0.09556512 -0.2560964
000010 27 ae b1 be 74 f9 1d bd 98 d1 89 3e 52 81 94 3e
       -0.3470318 -0.038567975 0.2691772 0.29004914
000020 84 72 e5 3e 92 38 11 be 2a 55 d5 3e de 79 92 3e
       0.4481393 -0.14181736 0.41666538 0.28608602
000030 fe ca 2b 3e 61 a7 2b 3e 64 f6 bc 3d d8 e2 2e 3f
       0.16776654 0.16763069 0.09226683 0.68314886
000040 a4 88 3d 3e 1c b3 e5 be 41 5e 96 3e 36 88 00 3f
       0.18509156 -0.44863212 0.29368785 0.5020784
000050 c4 bf 2a bc ce 24 2e 3e a0 3c 8c be 0a 1b 1f 3e
       -0.010421697 0.17006227 -0.27390003 0.15537658
000060 44 a2 cf 3e 6c 0c 30 3f 06 09 bf 3e 2e 9a 30 3d
       0.40553486 0.68768954 0.37311572 0.043115787
000070 cf 8d dd bd 59 b6 41 3d 62 37 d3 3d 84 d0 db 3d
       -0.108180635 0.04729304 0.10313298 0.107331306
000080 d3 2c 23 bf b6 a1 3d 3f ce 17 97 bc 54 6b 1c 3e
       -0.6374027 0.74074876 -0.018443968 0.15275317
000090 64 80 f2 3d 39 18 ba be bd 25 5c bf 39 d6 b4 3b
       0.11840895 -0.36346605 -0.85995084 0.0055187014
0000a0 40 f5 2b 3f 0a 1a c3 bc ba 1a cd bd 35 2a df 3d
       0.67171097 -0.023816127 -0.10014863 0.10896722
0000b0 c7 36 df 39 db ec 82 3d 38 15 00 3f eb 8e c9 3e
       0.00042574687 0.06392833 0.5003238 0.3936685
0000c0 68 0e 88 3e 88 6b 10 3e af c6 bd 3e ce ed 91 3e
       0.2657349 0.1410352 0.37065646 0.28501743
0000d0 0b e0 22 be 91 94 26 be 55 59 af be 94 f0 9c 3c
       -0.15905778 -0.16267611 -0.34247842 0.019157685
0000e0 2c 72 a1 3e ca 8b 6d be 52 f2 84 3e f4 e4 e6 3d
       0.3153242 -0.23197857 0.25966126 0.11274138
0000f0 6c 8b 05 bc 0e ca 96 be 82 6f 05 be 1c 00 8b 3e
       -0.008150917 -0.2945103 -0.13030818 0.2714852
000100 01 74 b1 3e f9 ba 9b be d6 b8 1c bd 3c d4 bc bc
       0.34658816 -0.30416086 -0.03826221 -0.02305042
000110 9d b2 b8 3e 32 ef 9a 3e 04 f6 b0 be ab 0e b8 3d
       0.3607377 0.30260617 -0.34562695 0.08987173
000120 16 44 f8 3d 6d bb bb 3e 43 77 38 bb b8 58 c5 bd
       0.12122361 0.36666432 -0.0028147257 -0.096360624
000130 89 3f cc be 95 04 24 bd b0 54 82 3e e2 fc bc 3e
       -0.39892223 -0.040043432 0.25455236 0.36911684
000140 d8 b0 8c bc 28 16 2d 3e 82 97 8e bd 06 00 a0 bf
       -0.01717417 0.16902983 -0.069624916 -1.2500007
000150 1f da f0 bd 08 c0 36 be c1 b9 84 3e 06 da 82 bc
       -0.11760353 -0.17846692 0.2592297 -0.015973102
000160 ef 53 8c 3e 1d ad 6c be 9b 13 09 be d1 a4 5c 3e
       0.27407786 -0.23112912 -0.13386385 0.21547247
000170 b3 0e 1a 3d 0f 60 30 3e be ff 17 be d1 3a b3 3e
       0.037611675 0.17224143 -0.14843652 0.3500581
000180 39 ae 8d be 11 04 e9 3d a9 c2 0a be 6b 27 89 3e
       -0.27671984 0.11377729 -0.1355082 0.26787886
000190 a7 7a a0 bd 4d aa 70 bd f8 f3 5c 3e 1d 93 e7 3c
       -0.07835894 -0.05875616 0.21577442 0.028268391
0001a0 cf 99 08 3f d2 8e 07 be ae 6b d0 bd 55 47 83 3e
       0.53359693 -0.13238075 -0.10176788 0.2564036
0001b0 a1 ff 9f 3e ad a9 7f bd 27 f2 cd 3d 43 d0 2d 3d
       0.31249717 -0.062417675 0.100559525 0.042434942
0001c0 d2 af 28 3e ac 5b e5 3e 86 44 be bd ee 1b 00 3d
       0.1647332 0.44796503 -0.092904136 0.031276636
0001d0 75 05 51 3f 1d 18 25 3f 16 ee 04 bc c0 79 1b bf
       0.8164895 0.6448992 -0.008113405 -0.6073265
0001e0 69 f8 82 bd 62 6f 77 be 82 c9 02 3e 46 1e 5b 3e
       -0.06395037 -0.24163583 0.12772182 0.21398267
0001f0 99 9a 8c 3d 9b 33 8a be d3 8c 85 3c 36 5b 63 3d
       0.06865425 -0.26992497 0.016302502 0.055506907
000200 03 f8 45 be ad c6 59 3d ce 41 84 3e d3 84 a7 3d
       -0.1933289 0.053167988 0.25831455 0.08179631
000210 ab d8 46 bf e9 ca 9f bd 3e 56 0f 3f a6 5f 8b 3d
       -0.7767436 -0.07802374 0.5599097 0.06805353
000220 ff 92 77 3e 01 8f 1e 3e 9b b1 c5 3e 15 dc 6c 3e
       0.24177168 0.15484239 0.38612065 0.2313083
000230 da 5a 9e 3e b6 84 5b 3d 47 95 c4 bc ea d6 37 3f
       0.3092869 0.05359336 -0.023996962 0.7181231
000240 8d 73 11 3f c6 f1 66 be d4 40 e2 3e 12 99 01 3f
       0.5681694 -0.22553167 0.44190085 0.5062419
000250 23 c2 2a be 5d f8 58 3d 19 95 b0 be 75 10 36 3e
       -0.1667562 0.052971233 -0.34488752 0.17779715
000260 89 f5 71 3d 31 65 2b 3f 20 0d d7 3d 32 d7 b6 3d
       0.05907205 0.6695128 0.1050055 0.08927764
000270 e5 c1 8c bd 6e f6 0c 3d 51 ba b6 be d3 6b 31 be
       -0.0687292 0.0344147 -0.35689023 -0.17326288
000280 ae df ee bf 6d de 69 3f 47 5d 36 3e 98 b7 d6 bd
       -1.8662012 0.9135502 0.1780902 -0.104842365
000290 65 57 13 3e 19 d4 a1 be 8a 16 07 bf e3 c4 8c be
       0.14388807 -0.3160713 -0.52768767 -0.27493963
0002a0 45 31 74 3f ac c4 82 bd ee 5b 98 be 93 ec c0 3d
       0.9538768 -0.063851684 -0.29757637 0.09420123
0002b0 2e 1b 7e be b1 a5 a1 3e 62 6a 08 3f 13 44 bd 3d
       -0.24815056 0.31571725 0.5328733 0.092415
0002c0 80 4c f8 3e e1 30 f9 bc fe a0 a8 3e 9c 1d 97 3e
       0.48495865 -0.030418815 0.32935327 0.29514778
0002d0 0d 99 aa bd 48 8f 0c bf 97 69 e2 be 60 e9 a3 3d
       -0.08329973 -0.5490613 -0.44221184 0.08003497
0002e0 9b 4c bf 3e 79 e6 15 3e 8e 71 38 3e 82 61 a1 bd
       0.37363133 0.146387 0.18012068 -0.07879926
0002f0 56 fe 8f bd 62 c9 5f be 6c 9b b1 bc d8 c9 e2 3e
       -0.070309326 -0.21854165 -0.021680556 0.4429462
000300 43 23 c8 3e 55 7d 8d 3b 54 f0 04 be 38 70 2a 3e
       0.39089403 0.0043179193 -0.12982303 0.1664437
000310 2f ed 99 3e 12 01 b2 3e c0 9c 73 bf e2 d8 06 3f
       0.3006377 0.34766442 -0.95161057 0.52674687
000320 b1 44 d1 3e bb 41 4a 3e f7 b5 25 3e 11 3b bc bd
       0.4087272 0.19751637 0.16182695 -0.091909535
000330 93 00 d3 bd eb e1 e4 3d 47 c9 58 3d 5b f8 fc 3e
       -0.10302844 0.11175903 0.052926328 0.4940823
000340 17 e1 ba ba 8c a6 cd 3e 8d 65 3f 3e 1f 10 9c bf
       -0.0014257756 0.40166128 0.18691082 -1.219242
000350 3c 3c b5 be 39 9b 0a bf b6 52 65 3e 71 6e 47 3e
       -0.35397518 -0.541431 0.22394833 0.19475724
000360 9e 24 77 3e af 1b 47 bd 38 b1 37 be 3d bf c7 3e
       0.24135062 -0.048610386 -0.17938697 0.3901309
000370 df d8 f6 3d 49 3d ab bd 6d a1 57 be 4d 43 82 3e
       0.12053084 -0.083612986 -0.21057673 0.2544197
000380 5c 71 f7 be 2c c6 1a bd 7f cc b2 be 47 0d 64 3e
       -0.48328674 -0.037786648 -0.34921643 0.2227069
000390 a1 03 e3 bd 9a d5 57 bf a8 49 d7 3e 0b 7d 06 bf
       -0.110846765 -0.84310305 0.42048383 -0.5253455
0003a0 40 b8 1a 3f 16 be b5 3c a8 34 3a 3e 63 de 17 3e
       0.60437393 0.022185367 0.1818415 0.14830928
0003b0 1e 64 25 3f d0 af 10 bc 3b 10 8e be 7c 32 b9 3e
       0.6460589 -0.0088309795 -0.27746758 0.3617133
0003c0 48 97 0c 3e 91 1f a5 3e c1 9c 40 be 69 e4 9d 3d
       0.13729584 0.32250646 -0.18809797 0.077095814
0003d0 f4 cb 5b 3f 5c 8b 7b 3f 57 3f 14 bf 9f 5d 51 be
       0.8585808 0.9825952 -0.5790915 -0.2044587
0003e0 85 5a 9d 3d 22 f9 6b bc 9a ec 10 3e 8e 64 34 3c
       0.07683281 -0.01440266 0.14152756 0.011010302
0003f0 b2 83 ae 3e 73 b5 ab be bd 31 b5 bd 46 73 04 bd
       0.3408485 -0.33536872 -0.088473774 -0.032336496

network.2.bias f4 [128]
000000 6c e6 bb 3e 70 3b e2 3e 16 0f c0 3e 56 a8 63 3d
       0.36699235 0.44185972 0.3751151 0.05558046
000010 94 83 a7 be a0 69 88 3e 74 68 55 3d bc 76 90 bc
       -0.32717574 0.26643085 0.052101567 -0.017634742
000020 a1 76 8c 3e 95 90 ad 3e de 01 c7 3e e1 7d 93 bc
       0.27434257 0.3389937 0.38868612 -0.01800436
000030 04 1e cc 3e 2e 0c 9e 3e f2 e6 7f 3e cc f1 2f 3e
       0.3986665 0.30868667 0.24990442 0.17182082
000040 07 d7 bf 3e e4 25 a4 3e a5 7d 90 3e 53 68 c4 3e
       0.3746874 0.32060158 0.2822086 0.38360843
000050 ee e6 7a 3e 14 f6 84 be 44 72 68 bd ea 59 b2 be
       0.24502155 -0.25968993 -0.056749597 -0.34834224
000060 96 53 bb 3e 08 1d 5c 3e 3c e8 93 3e 42 ed 70 3d
       0.36587209 0.2149545 0.28888118 0.058820017
000070 41 9e 3a be 64 1d 80 3d 69 a7 78 bc af ae 84 bc
       -0.18224432 0.06255606 -0.015176632 -0.016196577
000080 43 59 91 3e 8e 1e b3 bb ad a1 ea 3d 26 73 9d 3e
       0.28388414 -0.005466289 0.114566185 0.30751914
000090 8a e0 47 bc 24 cc 7d 3e 41 28 cf 3e 57 8d cd 3e
       -0.01219953 0.24784905 0.404604 0.40146896
0000a0 e3 ff 41 be b0 4d a8 3e c0 f5 17 bd 33 af 44 3e
       -0.1894527 0.3287177 -0.0370996 0.19207458
0000b0 64 a1 19 3d 2c 5f 12 3e a3 c5 89 be 84 34 c3 3e
       0.03750743 0.14294118 -0.26908597 0.38126004
0000c0 bb 39 c4 3e 5b 7f 7d 3e c8 95 a7 3e c0 34 c2 3e
       0.38325295 0.24755614 0.32731462 0.3793087
0000d0 f1 83 9a 3e c1 f0 d7 3e 8b c2 a8 3e 01 84 95 be
       0.30178788 0.42175868 0.32960925 -0.29202273
0000e0 5c 59 b1 3e b1 87 b7 3d bd 67 78 3e d7 da e4 3e
       0.34638488 0.08961428 0.24258323 0.44698212
0000f0 e8 1b 89 3e 53 63 9b 3e 01 40 b8 bc e6 29 af 3e
       0.26779103 0.30349216 -0.022491457 0.34211653
000100 f2 a2 93 3e 21 03 52 bd 0a 05 f7 3e f0 7d 21 3b
       0.28835255 -0.051272515 0.48246032 0.0024641715
000110 12 8d 2d bc 11 11 09 ba 79 19 65 3e 96 f8 96 3e
       -0.010592716 -0.00052286783 0.22372998 0.2948653
000120 a2 1c 91 3e 08 0a 76 3e 29 71 d2 3e 94 39 c3 3e
       0.28342158 0.24027264 0.4110196 0.38129866
000130 93 a2 d2 3e 44 cb be 3e fb 7d 07 3e de 8b a5 3c
       0.4113966 0.37264454 0.13231651 0.020208295
000140 6e 82 03 3f 5d be fe 3e 5c 8f c4 3e b3 22 97 3e
       0.51370895 0.4975461 0.38390625 0.2951866
000150 18 58 bb 3e 48 70 9c 3e fa 66 de bd 9a 31 8b 3e
       0.36590648 0.30554414 -0.10859485 0.2718628
000160 cf f3 be 3e 40 ba 95 3e e7 d2 0e 3d 82 5c c2 3e
       0.37295386 0.2924366 0.0348691 0.37961203
000170 60 d2 a0 3e 5f 02 4d 3e 4b ef a1 3e ec 77 af 3e
       0.31410503 0.20020436 0.3162788 0.3427118
000180 45 3b c8 3e 60 e6 c1 3e 4f d2 8c 3e 02 21 ca bc
       0.3910772 0.37871075 0.27504203 -0.024673942
000190 89 2e a4 3e 29 9d a8 be fd 08 0e 3f 04 13 1d bd
       0.32066754 -0.32932404 0.55482465 -0.038348213
0001a0 5b d1 98 3e d3 53 cc 3e 16 ec f7 bc b7 c5 90 3e
       0.29847226 0.39907703 -0.030263942 0.28275844
0001b0 80 fd b6 3e 1d c3 ad 3e 8b 2c 19 3d 59 4a 6f 3e
       0.3574028 0.33937922 0.037395995 0.23368205
0001c0 31 07 99 3e 81 56 be 3e a1 bf 8f 3e 39 ba 09 3f
       0.298883 0.37175372 0.2807589 0.5379978
0001d0 05 62 d6 3e cd a6 7e 3e 4e 7c bc 3e 37 05 04 3f
       0.41871658 0.24868317 0.36813587 0.5157046
0001e0 df c4 bb 3e 14 e5 fe 3e e9 e9 c4 3e c0 ca a5 3e
       0.36673638 0.49784148 0.3845971 0.32381248
0001f0 38 66 bf 3e 41 48 81 3e 5f 6d c3 3e b7 d7 b5 3e
       0.37382674 0.25250438 0.3816938 0.3551614

network.4.weight f4 [2, 128]
000000 99 2e 0a 3f f0 44 71 3f f5 2b 8e 3e 6d 55 93 3f
       0.5397735 0.94245815 0.27767912 1.1510445
000010 5f 1f c2 be 16 74 88 3f 35 33 62 bf 0b b8 73 bf
       -0.3791456 1.0660427 -0.88359386 -0.952027
000020 b8 4a 95 3f 70 9e 01 3f 6c b8 23 3f fd 8a 81 bd
       1.1663427 0.5063238 0.6395328 -0.06325338
000030 a4 73 db 3e 85 52 29 3f 98 74 72 bf 2f b3 a3 be
       0.42861664 0.6614154 -0.9470916 -0.31972644
000040 5f 14 d0 3e b5 90 01 3f 12 b0 06 3f ab a6 85 3e
       0.40640542 0.5061143 0.5261241 0.2610372
000050 9e e5 8a 3e b1 fe 56 bf 88 c0 05 bf bd 75 d2 bf
       0.2712831 -0.8398238 -0.52246904 -1.6442181
000060 36 54 63 3e 1d de 63 3e ee b6 ff be 3f 24 ed bd
       0.22200093 0.22252698 -0.49944252 -0.11579179
000070 04 cd af b9 c8 33 1e bf 33 9d 2d be 52 a1 0d 3b
       -0.0003353135 -0.6179776 -0.16954498 0.0021611047
000080 50 49 1a bf 53 94 d2 bd 9b 85 df 3e 0b ad 4c 3f
       -0.60268116 -0.10282197 0.4365662 0.7995154
000090 f3 32 69 bc 9e 26 de bd ca ef 0d 3f d9 10 6e 3f
       -0.014233339 -0.108472094 0.55444014 0.9299446
0000a0 34 10 3b bf 2a ec 42 3f db 01 35 be 59 23 67 bf
       -0.730716 0.7614161 -0.17676489 -0.9028831
0000b0 6b 34 00 bf d0 7d 57 bf 79 da d8 bf 4e 0a cb 3e
       -0.50079983 -0.8417635 -1.6941673 0.396563
0000c0 58 21 b8 3e 57 6d 59 3f 8b 31 13 3f d4 b3 a9 3e
       0.3596294 0.84932464 0.5749747 0.3314501
0000d0 89 76 db be a9 65 d1 3e c3 a7 46 3f 8f 91 48 be
       -0.42863873 0.40897873 0.77599734 -0.19586776
0000e0 b9 7a 11 3f 5c bf 28 bf a4 fb a9 3f 59 b3 25 3f
       0.56827885 -0.6591699 1.327992 0.6472679
0000f0 0f c0 03 3d 0b 59 77 bd 5a d0 f7 bd 10 c7 80 3f
       0.032165583 -0.060387652 -0.12100287 1.0060749
000100 c2 9d 8a 3f e9 60 5f bf d9 b3 26 3f c8 a8 1e bf
       1.0829394 -0.8725725 0.65118176 -0.6197629
000110 03 50 ea be e0 a0 05 3e 3d c0 71 3f 8f a7 0c 3f
       -0.4576417 0.1304965 0.9443396 0.54943174
000120 e8 7e 70 3f a5 26 23 3f 2f 4c 87 3f 2e 62 12 3f
       0.93943644 0.6373084 1.0570124 0.5718106
000130 7b 64 d5 3e 3c c1 09 3f 04 31 e0 be 6e e7 4f bf
       0.41678223 0.5381048 -0.43787396 -0.8121251
000140 f3 b1 3d 3f 14 3d 36 3f d3 1c 99 3e e8 95 90 3f
       0.74099654 0.7118695 0.29904804 1.1295748
000150 ce 4d 0d 3f d2 a2 a8 3e e0 c2 d1 be cd 31 cf 3e
       0.55196846 0.32936722 -0.4096899 0.40467682
000160 1e 7d 19 3f 34 71 91 3f aa f5 37 bf f9 85 c6 3e
       0.5995654 1.1362672 -0.7185923 0.38774088
000170 e2 55 b9 3e d8 7f 1a 3f 19 4b d0 3e 62 72 fa 3e
       0.36198336 0.60351324 0.40682295 0.48915392
000180 5f 75 9e bf 2e a4 0e 3f b7 53 6b 3f ca d3 fa bd
       -1.2379569 0.5571927 0.91924614 -0.12247427
000190 d2 20 1d 3f 25 75 f7 bf 28 89 3e 3f 1e 23 57 bf
       0.61378205 -1.9332625 0.74428034 -0.8403796
0001a0 30 56 14 3f 3c 98 52 3f 14 02 37 be 6f 41 58 3f
       0.5794401 0.8226354 -0.17871886 0.84474844
0001b0 d0 60 92 3f de bd d9 3d 80 9d bb be d0 19 c9 3d
       1.1435795 0.106319174 -0.366436 0.098193765
0001c0 b9 47 64 3f 56 d7 b7 3e 08 f4 04 bf 1b cb fa 3e
       0.8917194 0.35906476 -0.5193486 0.48983082
0001d0 cb 5f 2a 3f a5 e9 0d 3e 17 76 10 3f a6 bc 6b 3f
       0.6655242 0.1385866 0.5643019 0.9208473
0001e0 7e 91 98 3f 3b 31 98 3f b8 8b ea 3e 20 52 06 bf
       1.1919401 1.1890024 0.45809722 -0.5246906
0001f0 67 60 e4 3e 07 6d 16 3f 08 f1 e9 3e 73 f2 08 3f
       0.446048 0.5876011 0.45691705 0.5349495
000200 27 2b c1 3e 2f 5c b5 3e 4b 62 82 3e 2c 42 9e 3d
       0.37728235 0.35421893 0.25465617 0.07727465
000210 c3 27 ab bf 3e b8 1e 3f 68 b5 29 bf 5f 33 23 bf
       -1.3371509 0.6199988 -0.6629243 -0.6375026
000220 ca 9f 10 3f ab 86 b5 3e 51 b9 10 3f 2d 31 24 3c
       0.5649382 0.35454306 0.5653277 0.01002149
000230 9e f5 05 3f 71 9b 65 3f f4 4b 21 bf b9 42 8f bf
       0.5232791 0.8969031 -0.6300652 -1.1192237
000240 88 2e f5 3e 10 a7 46 3f 5d 53 05 3f e8 4e c0 3e
       0.47887063 0.7759867 0.5208033 0.375602
000250 25 0f 9d 3f c1 55 50 bf ff b0 4b bf 2f 29 72 be
       1.2270247 -0.8138085 -0.7956695 -0.23648523
000260 a5 da 02 3f ff e8 48 3f 7b 69 49 3e 9e 54 43 3f
       0.51114875 0.78480524 0.19669144 0.7630099
000270 94 67 bd bf 5f e6 49 bf 90 19 11 3e 5b 63 7c bd
       -1.4797235 -0.78867143 0.14169908 -0.06161819
000280 2b 49 52 3e 94 79 53 3d 3f 6a 83 bd b7 e1 fd 3e
       0.20535724 0.051629618 -0.06416749 0.4958627
000290 ec 51 21 bd b5 86 62 bf 49 ba 45 3f a0 ee 55 3f
       -0.039384767 -0.88486797 0.77237374 0.8356724
0002a0 eb 70 02 bf 2a 05 5a 3f 9d bf e8 bd 18 23 00 bf
       -0.5095355 0.8516413 -0.11364672 -0.5005355
0002b0 1f fb 4f bf 6c b9 1c bf 77 c9 0d bf 47 b5 16 3f
       -0.81242555 -0.6122043 -0.55385536 0.5887036
0002c0 b2 74 db 3e 0a 42 cd 3e 6c 8c 9c 3e 98 81 ed 3e
       0.4286247 0.40089446 0.30575883 0.46387935
0002d0 9a 25 65 3e 3f 51 11 3f d9 c6 0e 3f da 55 b0 bf
       0.22377625 0.56764597 0.5577217 -1.37762
0002e0 86 b3 a6 3e 7a ee 49 be d5 22 56 3f 0c 35 3b 3f
       0.3255884 -0.19719878 0.836469 0.7312782
0002f0 a0 1b 2d 3f 16 da 02 3f 04 17 2a bd 0c 1d 14 3f
       0.6762028 0.5111402 -0.041525856 0.5785682
000300 08 b1 17 3f c8 64 2c bf 20 f6 02 3f 12 17 62 bf
       0.59254503 -0.6734128 0.51156807 -0.8831645
000310 e1 53 4b bf 6b cb a7 bd 20 23 b0 3e 25 ed 60 3f
       -0.79424864 -0.08193096 0.34401798 0.87861854
000320 ae b8 ec 3e 44 a4 2b 3f 18 36 15 3f 82 f9 4d 3f
       0.4623465 0.67047524 0.58285666 0.80458844
000330 a0 0d db 3e a9 db e0 3e b5 42 7f bf fc af 4d bf
       0.42783833 0.43917587 -0.9971116 -0.80346656
000340 41 d0 fd 3e a4 d5 2a 3f cb 66 d8 3e 01 6e 21 3f
       0.49572948 0.6673224 0.42265925 0.6305848
000350 a9 aa 52 3f dd 72 f3 3e 4e fa 44 bf f5 03 e5 3f
       0.82291657 0.4754857 -0.76944435 1.7891833
000360 cb 88 4d 3f cf 19 f7 3e 47 1d 5d bf c8 ce e5 3e
       0.80286855 0.48261878 -0.863728 0.44884324
000370 4e 67 34 3e 15 4b be 3e d3 59 57 3e 8d d5 96 3e
       0.17617533 0.37166658 0.21030359 0.294598
000380 39 6e 57 3f 91 ae ed 3e e4 6c f0 3e 08 2a 35 bf
       0.8415256 0.46422246 0.46958077 -0.7076726
000390 fc c2 2b 3f b4 20 80 be f9 ca 87 3f c1 71 3e bf
       0.670944 -0.2502495 1.0608817 -0.74392325
0003a0 40 a7 08 3f b1 2f 75 3f 5c 5d 1c be 55 b2 49 3f
       0.53380203 0.95775896 -0.15269989 0.7878774
0003b0 94 42 21 3f c5 bf e5 3e 04 be d7 3e 35 04 73 3f
       0.62992215 0.4487287 0.42137158 0.94928294
0003c0 fb 83 fe 3e 91 63 c4 3e f1 c5 c2 3e 3b ce 8b 3f
       0.49710068 0.38357213 0.38041642 1.0922312
0003d0 1d 56 17 3f 2f 33 4d 3f b3 d0 12 3f 74 cf 8e 3f
       0.59115773 0.80156225 0.573497 1.115706
0003e0 e5 7e 31 3f f1 b2 2d 3f 72 81 28 3f 1d a4 0a 3f
       0.6933425 0.6785117 0.6582252 0.54156667
0003f0 94 c6 9b 3e 6a 06 d3 3e cf a6 10 3f f9 1f c4 3e
       0.3042494 0.4121583 0.5650453 0.38305643

network.4.bias f4 [2]
000000 23 84 78 3e ec 8c b3 3e
       0.24269156 0.35068452
