lab7/LAB7_110550161_task1_a2c_pendulum.pt (torch, 41210 bytes, 10 tensors)

model.0.weight f4 [64, 3]
0	0xbe87de7d	-0.26536933
1	0xbee63aa5	-0.44966617
2	0xbd72f0bb	-0.05931161
3	0xbea04545	-0.31302848
4	0x3f2d4281	0.676796
5	0xbea6a8f8	-0.32550788
6	0x3e29742d	0.16548224
7	0x3f2fd351	0.6868182
8	0xbe0a291e	-0.13492247
9	0xbdf1b97e	-0.11802958
10	0x3eefee5e	0.46861547
11	0x3c8b63d3	0.017015373
12	0xbcb991a3	-0.022652453
13	0x3f389666	0.7210449
14	0xbb6dae26	-0.003626713
15	0xbeb927dc	-0.36163223
16	0xbdf32d09	-0.11873824
17	0x3e1ac276	0.15113243
18	0x3e96cb42	0.29451948
19	0x3edec9ba	0.4351328
20	0x3d9c11c7	0.07620578
21	0x3e8909d6	0.26765317
22	0xbecc970e	-0.39958996
23	0x3eafabd4	0.34310782
24	0xbed9aa62	-0.42512804
25	0xbed29f17	-0.41137
26	0x3e46361d	0.1935658
27	0x3d9cdab8	0.07658905
28	0x3ef2dc38	0.4743364
29	0x3e3097be	0.17245385
30	0x3f32c686	0.6983417
31	0x3ea4472a	0.32085544
32	0x3e74b90c	0.23898715
33	0x3e695588	0.22786534
34	0xbe8ab460	-0.2709074
35	0x3df1eba5	0.11812524
36	0x3e81bca8	0.25339246
37	0xbe9c8c9c	-0.30576026
38	0xbe8a160c	-0.26969945
39	0xbf14525b	-0.57938164
40	0x3ee07405	0.43838516
41	0xbec6e653	-0.38847598
42	0x3f393323	0.72343653
43	0x3e1633de	0.14668223
44	0x3e64a90b	0.2233011
45	0x3f1e00db	0.61720055
46	0x3f1afa06	0.60537755
47	0x3e684e10	0.22686028
48	0xbf27e232	-0.6557952
49	0xbd63eb36	-0.055644237
50	0xbe2edf96	-0.17077479
51	0xbf1fd8c3	-0.6244013
52	0xbe9387c3	-0.28814515
53	0x3e975882	0.29559714
54	0xbde432ed	-0.11142526
55	0x3f3bee7e	0.73410785
56	0xbe95f317	-0.29287025
57	0x3c82a1f2	0.015946362
58	0x3f1f2d0b	0.62178105
59	0xbeb32baf	-0.34994265
60	0x3f28da77	0.6595835
61	0x3f050282	0.5195695
62	0x3e1a3db0	0.15062594
63	0xbe3c2c6f	-0.18376325
64	0xbed7a177	-0.42115375
65	0x3ec8bb52	0.39205414
66	0x3ec50b51	0.38485196
67	0x3ddbb863	0.10728528
68	0x3eee6537	0.46561596
69	0xbf0a2dfc	-0.53976417
70	0xbe087fba	-0.13329974
71	0xbe972390	-0.2951932
72	0x3f179ca8	0.59223413
73	0xbf24c94c	-0.64369655
74	0xbc857475	-0.016290883
75	0xbe9ac9c3	-0.30232057
76	0x3d12f493	0.035877775
77	0xbef94245	-0.48683372
78	0x3ebd492f	0.36969897
79	0xbe83650c	-0.2566303
80	0xbeea6f5e	-0.4578809
81	0x3dd50af6	0.10402481
82	0xbea8fa85	-0.3300363
83	0x3e13fcb6	0.1445187
84	0x3ee9e9a4	0.45686066
85	0xbdd16896	-0.10225026
86	0x3ed3de33	0.41380462
87	0x3e229a1b	0.15879099
88	0xbf0bfe07	-0.5468449
89	0x3d673aa8	0.056452423
90	0xbe4b6898	-0.19864118
91	0x3eda53e4	0.42642128
92	0xbeda11c9	-0.42591694
93	0x3da808f9	0.082048364
94	0xbf04b48a	-0.5183798
95	0x3dbdeeeb	0.092740856
96	0xbf2257e8	-0.63415384
97	0x3e5d9e47	0.2164241
98	0xbed8bb2b	-0.42330298
99	0x3dfe8b62	0.12428929
100	0x3cf04dd7	0.029333992
101	0x3ec61a81	0.38692096
102	0x3eae9195	0.34095445
103	0x3e955ae9	0.2917092
104	0xbe52d433	-0.2058876
105	0x3d5a8564	0.053349867
106	0x3ec40a04	0.3828889
107	0x3e855b68	0.260463
108	0xbe571681	-0.21004678
109	0xbe868647	-0.2627432
110	0xbea08993	-0.3135496
111	0x3e1f8749	0.15578951
112	0x3ea19db8	0.31565642
113	0x3e83dc12	0.25753838
114	0x3eeb6074	0.45972025
115	0x3f2ed611	0.6829539
116	0x3d58713c	0.052842364
117	0x3f22d438	0.6360507
118	0x3e9d40f8	0.3071363
119	0x3f02383e	0.5086707
120	0x3f0a34af	0.5398664
121	0x3e2f7d64	0.17137676
122	0x3e7d1c1d	0.24717756
123	0xbe458f16	-0.19292864
124	0xbf2d85dd	-0.67782384
125	0x3e3c298b	0.18375222
126	0x3f1fdfba	0.62450755
127	0x3f0b6472	0.5445014
128	0x3dedc01b	0.11608907
129	0xbf1bcd2f	-0.6085996
130	0xbf1cd15e	-0.6125697
131	0x3e7c4a70	0.2463777
132	0x3ed95989	0.42451122
133	0x3edb02b5	0.42775503
134	0x3ea60c00	0.3243103
135	0xbdbb952f	-0.09159314
136	0xbf314eff	-0.69261163
137	0x3e6e6c65	0.23283537
138	0xbf11295e	-0.56703746
139	0x3e83f051	0.25769284
140	0xbe0bf30a	-0.13666931
141	0x3e8aa896	0.27081746
142	0x3f4f4ed3	0.8097965
143	0x3b5addf6	0.003339646
144	0x3efd1d79	0.49436548
145	0x3e0b65ca	0.13613048
146	0x3e98a3b8	0.29812407
147	0xbe677396	-0.22602686
148	0xbf4de3a9	-0.80425507
149	0xbdf36e81	-0.11886311
150	0x3e61fa1f	0.2206807
151	0x3eba72ff	0.3641586
152	0x3ea5cfec	0.32385194
153	0xbd39f7d4	-0.045402363
154	0x3ede355e	0.4340009
155	0xbd03c0fb	-0.032166462
156	0x3f21e527	0.63240284
157	0x3eec09c7	0.4610121
158	0x3e14e389	0.14539923
159	0xbea0d3cf	-0.31411597
160	0x3eaa146b	0.33218703
161	0xbe81a60d	-0.25322
162	0x3f053e89	0.52048546
163	0x3e80fc7e	0.25192636
164	0xbe2e572a	-0.17025438
165	0x3e702542	0.23451713
166	0xbe958639	-0.29203966
167	0xbeeadc1d	-0.45871058
168	0xbefe19a6	-0.49628943
169	0xbf4146e1	-0.7549878
170	0xbdf90a6a	-0.121601894
171	0xbeaef670	-0.34172392
172	0xbe86ce0f	-0.26329085
173	0x3ee3ba25	0.44477955
174	0x3e9e8cee	0.30966896
175	0x3ee3d289	0.44496563
176	0x3e12c274	0.1433199
177	0x3e95afe4	0.29235756
178	0x3e449147	0.19196044
179	0x3d950600	0.07276535
180	0x3f26e186	0.6518787
181	0x3f384fe3	0.719969
182	0x3dfc4301	0.123174675
183	0x3ed3e89d	0.41388407
184	0x3edb8bfe	0.42880243
185	0x3e8e7019	0.278199
186	0x3f044fb0	0.51684093
187	0xbcd3d71c	-0.025859408
188	0x3e628e47	0.22124587
189	0xbdea85ed	-0.114513256
190	0x3e57eafc	0.21085733
191	0xbdbb8deb	-0.09157928

model.0.bias f4 [64]
0	0x3efd8fcb	0.49523768
1	0xbea36a2f	-0.3191695
2	0x3e8255c3	0.25456056
3	0x3e2e7385	0.17036255
4	0x3eae4bec	0.340423
5	0x3dc77f98	0.097411335
6	0xbe893dee	-0.2680506
7	0xbd9f1750	-0.077681184
8	0x3ec1fd55	0.3788859
9	0x3e092eae	0.13396713
10	0xbeff1e41	-0.4982777
11	0xbf0679f0	-0.5252981
12	0x3f136c5c	0.5758722
13	0xbea73a03	-0.32661447
14	0xbe3e28e1	-0.18570282
15	0xbea4426c	-0.32081926
16	0x3e5bdb45	0.21470363
17	0xbeddc73a	-0.4331606
18	0x3e8c3a84	0.27388394
19	0xbebdaf01	-0.3704758
20	0xbf00ba74	-0.50284505
21	0xbdab1b91	-0.08354867
22	0x3deb4f8b	0.11489781
23	0xbeb3c909	-0.35114315
24	0x3eae8dc7	0.34092543
25	0xbf0aefed	-0.5427235
26	0x3ee50b2b	0.44735083
27	0xbf10e951	-0.5660601
28	0x3c8988af	0.016788809
29	0xbde5e035	-0.11224405
30	0xbe83c798	-0.25738215
31	0x3f1d34a1	0.6140843
32	0x3eb39136	0.35071725
33	0x3efc36fd	0.49260703
34	0xbed0f87a	-0.40814573
35	0xbefe6b8e	-0.49691433
36	0xbf197787	-0.5994801
37	0x3e959705	0.2921678
38	0xbcc9fbf3	-0.024656272
39	0xbeb2cffd	-0.34924307
40	0xbeb3d241	-0.35121349
41	0x3ebd6a37	0.36995098
42	0xbdb0a7db	-0.08625766
43	0x3e2d809f	0.16943596
44	0xbf007d14	-0.50190854
45	0x3f2d0f53	0.6760151
46	0xbddbdc41	-0.107353695
47	0x3e837989	0.2567866
48	0xbf0600e5	-0.52345115
49	0x3f199121	0.59987074
50	0x3f040d56	0.5158285
51	0xbe879af9	-0.26485422
52	0xbe72a880	-0.2369709
53	0xbebddf92	-0.37084633
54	0x3ef13bcc	0.47115934
55	0x3e68e953	0.22745256
56	0x3edfb2ba	0.43691045
57	0x3eab50bb	0.3346003
58	0xbed70c0d	-0.42001382
59	0xbe9abf59	-0.30224112
60	0xbea63fef	-0.32470652
61	0xbe5ead89	-0.21745886
62	0xbe8c399e	-0.27387708
63	0x3e9f8771	0.3115802

model.2.weight f4 [64, 64]
0	0x3e26d9b8	0.1629399
1	0xbe6b2d48	-0.22966492
2	0xbd6aa2bc	-0.0572841
3	0xbe1c1900	-0.15243912
4	0xbe28010c	-0.1640665
5	0xbce15192	-0.027504716
6	0xbe35a6d6	-0.17739424
7	0xbd1d1478	-0.0383496
8	0x3e2716f1	0.16317345
9	0xbdda6524	-0.10663822
10	0xbe10facc	-0.14158171
11	0xbd9d6289	-0.0768481
12	0x3d8fb5f0	0.07017124
13	0x3b59ec29	0.0033252335
14	0xbbd092be	-0.0063651493
15	0xbdc63cdb	-0.09679576
16	0xbd9cf1ae	-0.07663284
17	0xbc3f2048	-0.011665411
18	0xbdf88edd	-0.12136624
19	0xbdad7318	-0.08469218
20	0xbdd2f38b	-0.103003584
21	0xbd0f4858	-0.0349811
22	0x3dc0137c	0.09378716
23	0xbe15ffe7	-0.146484
24	0x3e6c025c	0.23047775
25	0xbc2c54a7	-0.01051823
26	0xbcb8bab4	-0.022549964
27	0xbca7cf6d	-0.02048465
28	0x3c981399	0.018564032
29	0x3d8214d1	0.06351627
30	0x3d1b0767	0.037848856
31	0x3e224757	0.15847526
32	0xbd8a705d	-0.06759713
33	0xbd7180f5	-0.058960874
34	0x3cbc1f2d	0.022964085
35	0xbe0ab965	-0.13547285
36	0x3bc56a52	0.0060246373
37	0xbd630859	-0.055427883
38	0xbc92c667	-0.017916871
39	0xbcfd0382	-0.030885462
40	0xbdd7c217	-0.105350666
41	0x3d7cb9aa	0.0617005
42	0xbe1649ba	-0.14676562
43	0x3df33766	0.11875801
44	0xbc33d9d2	-0.010977225
45	0x3e4515e4	0.19246632
46	0xbe0af7c2	-0.13571075
47	0xbd792e93	-0.060835432
48	0xbca76047	-0.02043165
49	0x3e52f9ba	0.20603076
50	0xbddbc412	-0.10730757
51	0xbe0be7a7	-0.13662587
52	0xbe58cb48	-0.21171296
53	0xbcefa4b4	-0.029253341
54	0x3e0b9a50	0.13633084
55	0xbd5fc6b8	-0.054632872
56	0x3d86d465	0.0658348
57	0x3dcacb7b	0.09902092
58	0xbd4d4556	-0.050114952
59	0x3c9b5446	0.018961083
60	0xbe3fc0d7	-0.18725906
61	0xbcdd8022	-0.027038638
62	0xbd5541f0	-0.052064836
63	0x3c375732	0.011190223
64	0x3b97a61a	0.004627955
65	0xbe13759c	-0.14400333
66	0x3c28a0fe	0.01029229
67	0x3d5444d8	0.051823467
68	0xbe46b9e5	-0.1940685
69	0x3e0da5e4	0.13832814
70	0xbdfbab51	-0.122885354
71	0x3dcaf4c8	0.099099696
72	0x3e25c8c9	0.16189875
73	0x3ccbd087	0.024879707
74	0xbdd11494	-0.10209003
75	0x3d1e3ebc	0.038634047
76	0x3c46d738	0.012136273
77	0xbdb6d75a	-0.08927794
78	0xbe39ddb8	-0.18150985
79	0xbe16413e	-0.14673325
80	0xb9836aa1	-0.00025065712
81	0x3de0280c	0.10945138
82	0xbc698fdd	-0.014255491
83	0x3ca22f73	0.019798016
84	0xbd63d9b0	-0.055627525
85	0xbd18b15a	-0.03727851
86	0xbb85d46c	-0.0040841606
87	0x3c5ac46c	0.013352495
88	0x3e6b62a9	0.22986855
89	0xbe094a9c	-0.13407367
90	0xbca3b15c	-0.019982032
91	0xbdc6b0e6	-0.097017094
92	0xbd0f2262	-0.0349449
93	0x3cc8817b	0.024475804
94	0xbcf3fe5f	-0.02978438
95	0x3e247aab	0.16062419
96	0xbdafae21	-0.08578134
97	0xba80efa1	-0.000983704
98	0xbe003dba	-0.12523547
99	0xbe127da2	-0.14305738
100	0xbda764c5	-0.08173517
101	0xbcd7a868	-0.02632542
102	0xbdd59252	-0.10428299
103	0x3c5153f9	0.012776368
104	0xbe485884	-0.19565016
105	0x3ddc9d57	0.10772198
106	0xbc3b928a	-0.011448512
107	0xbc48db1a	-0.012259269
108	0xbcd8e1a0	-0.026474774
109	0x3e431ece	0.1905472
110	0xbe21d742	-0.1580477
111	0xbe387241	-0.18012334
112	0xbe455371	-0.19270112
113	0x3e263115	0.16229661
114	0xbd738551	-0.059453312
115	0xbe361567	-0.17781602
116	0xbd593911	-0.05303294
117	0xbe03766f	-0.12838148
118	0x3db63439	0.088966794
119	0x3de698b9	0.11259598
120	0x3d84b474	0.06479731
121	0x3d4ebf6d	0.050475527
122	0xbddd8ab2	-0.1081747
123	0xbdb7aaf2	-0.08968152
124	0xbe595579	-0.21224011
125	0xbd6c59c1	-0.057702783
126	0x3d510874	0.051033452
127	0xbbe54799	-0.0069970605
128	0x3e4e962f	0.20174478
129	0xbe5046c6	-0.20339498
130	0xbd3c2db0	-0.04594201
131	0xbcc7842a	-0.024355013
132	0xbdd4dbb5	-0.10393468
133	0x3cf8dea5	0.030379603
134	0xbe35333b	-0.17695324
135	0xbd41a170	-0.0472731
136	0x3d063b0d	0.03277116
137	0xbd795c97	-0.060879316
138	0xbe555a7a	-0.20835295
139	0xbdcdb750	-0.1004473
140	0x3d6a5ab8	0.057215422
141	0xbe834fd6	-0.25646847
142	0x3cefff64	0.029296584
143	0xbe4abe2b	-0.19799106
144	0xbd8c5873	-0.06852808
145	0x3d8cc31c	0.06873152
146	0xbe51bbd5	-0.20481808
147	0xbe31f628	-0.17379057
148	0xbe6a1318	-0.22858846
149	0x3c815b73	0.015790677
150	0xbd3e0466	-0.046390913
151	0xbe37cf23	-0.1795011
152	0x3e964762	0.29351336
153	0x3c9c1115	0.019051114
154	0x3db04835	0.086075224
155	0x3dd14674	0.10218516
156	0xbd9f7611	-0.07786191
157	0x3e7c0abf	0.24613474
158	0xbdb5a9ef	-0.08870303
159	0x3d9d6c03	0.07686617
160	0xbd84b58c	-0.0647994
161	0x3e284d52	0.16435745
162	0xbd915288	-0.0709582
163	0x3b8bf22e	0.0042708134
164	0x3c5919a2	0.01325074
165	0x3be53309	0.0069946093
166	0xbe1ed4bd	-0.1551084
167	0xbddbcaa2	-0.107320085
168	0xbe190f16	-0.14947161
169	0x3dfdce48	0.12392861
170	0xbe10eead	-0.14153548
171	0x3e40df56	0.18835196
172	0xbe51f689	-0.20504202
173	0x3e4a0bb8	0.19731033
174	0xbe5e53be	-0.21711633
175	0xbe4b4f25	-0.1985441
176	0xba99b030	-0.0011725482
177	0x3e3ae594	0.1825164
178	0xbc772025	-0.015083347
179	0xbdb44911	-0.08802999
180	0xbe747e8a	-0.23876396
181	0xbe9da53b	-0.30790123
182	0xbd596e7f	-0.053083893
183	0x3de3cc63	0.11122968
184	0x3e27774f	0.16354106
185	0x3e0003a8	0.12501395
186	0xbddddd4d	-0.108332254
187	0xbd75ee65	-0.060041804
188	0xbe62fbdb	-0.22166388
189	0xbd54a390	-0.051913798
190	0xbc091ae6	-0.0083682295
191	0x3d84c2ea	0.064824894
192	0x3c94ef9c	0.01818066
193	0xbe524420	-0.205338
194	0xbdcd5c95	-0.10027424
195	0xbe2982f8	-0.16553867
196	0xbda0c38a	-0.07849796
197	0xbc024f41	-0.007953466
198	0xbe756fcb	-0.23968427
199	0x3ceffbd6	0.02929489
200	0x3d0f5fda	0.03500352
201	0x3dd6258f	0.104563825
202	0xbe08668d	-0.1332037
203	0xbdb6bffb	-0.08923336
204	0x3d9b747c	0.07590577
205	0xbbba7961	-0.005690739
206	0xbe1eb731	-0.1549957
207	0xbe180370	-0.14845061
208	0xbd1ad1b7	-0.037797656
209	0xbd0453c3	-0.032306444
210	0xbe20c226	-0.15699062
211	0xbc630454	-0.013856012
212	0xbb7c8500	-0.0038531423
213	0x3e1438d1	0.14474799
214	0xbd4f70df	-0.05064475
215	0xbe3406ee	-0.17580768
216	0x3dfd828b	0.12378415
217	0x3c277870	0.010221586
218	0x3d444657	0.047918644
219	0x3d7dc6bf	0.061957117
220	0xbd7ff824	-0.062492505
221	0x3dd82d66	0.10555534
222	0xbc63d394	-0.013905425
223	0x3e2b0e8d	0.1670477
224	0xbbda13e4	-0.006655203
225	0xbcd6eb1d	-0.026235158
226	0x3d8f33ae	0.06992279
227	0xbe1ff768	-0.15621722
228	0xbdfa301c	-0.122162074
229	0x3bdcd077	0.006738718
230	0xbdec2efe	-0.115324005
231	0xbc94a9da	-0.018147398
232	0xbe367854	-0.17819339
233	0x3de790d8	0.11306924
234	0xbca58e39	-0.020209419
235	0x3e184ec6	0.148738
236	0xbda8dd47	-0.0824533
237	0x3df10c41	0.11769915
238	0xbe8825e6	-0.26591414
239	0xbd9ae5a0	-0.07563329
240	0xbd3e602f	-0.046478447
241	0x3d217412	0.039417334
242	0x3e01c4ca	0.12672725
243	0xbe8aaa9b	-0.27083287
244	0xbb8b9340	-0.004259497
245	0xbe45db01	-0.19321825
246	0x3e084473	0.13307361
247	0x3e05a7cb	0.13052289
248	0x3e0b06e9	0.13576855
249	0x3b928846	0.0044718115
250	0xbe18e156	-0.14929709
251	0xbce01f31	-0.027358623
252	0xbe2f9e04	-0.17150122
253	0xbe01e2b6	-0.1268414
254	0xbd03c278	-0.03216788
255	0x3da4ab49	0.080404826

model.2.bias f4 [64]
0	0x3e461dd1	0.19347312
1	0x3e024566	0.12721786
2	0x3de100f3	0.10986509
3	0x3c5be19d	0.01342049
4	0x3d84af91	0.06478799
5	0xbb1d51a2	-0.0024004956
6	0x3d85348f	0.065041654
7	0x3df13841	0.11778308
8	0x3da5d444	0.08097127
9	0xbdca95ed	-0.09891877
10	0x3d9d179b	0.07670518
11	0x3dcc16b3	0.09965267
12	0xbd600c1b	-0.054699045
13	0x3db3be1f	0.08776497
14	0xbe128495	-0.14308389
15	0x3d9856f5	0.07438461
16	0x3df1bb1f	0.11803269
17	0xbbff7d1b	-0.007796896
18	0x3dc994b5	0.09842817
19	0x3dc1f939	0.094713636
20	0xbd472e74	-0.048628286
21	0xbd0ca40c	-0.034336135
22	0x3e08bc29	0.13353027
23	0xbd582909	-0.05277351
24	0x3c0998c0	0.008398235
25	0xbc49a711	-0.012307898
26	0x3dae3724	0.08506611
27	0x3d3c486d	0.045967508
28	0x3d356a79	0.044290993
29	0xbd1375ae	-0.0360009
30	0x3e249034	0.16070634
31	0x3d44ca75	0.04804464
32	0x3d911c79	0.07085509
33	0x3d59d793	0.053184103
34	0x3e3b386e	0.18283245
35	0xbd954122	-0.07287814
36	0x3e1bff2f	0.15234064
37	0xbd962aed	-0.07332406
38	0x3d025398	0.031818002
39	0xbdbea209	-0.093082495
40	0x3d48e50a	0.049046554
41	0x3d9e59f9	0.07732005
42	0xbd82ea25	-0.06392316
43	0x3e638ce3	0.22221713
44	0x3dd6ea4a	0.10493906
45	0x3caf734f	0.021417288
46	0xbbde97eb	-0.0067930124
47	0x3dba1e09	0.0908776
48	0x3e6499d2	0.22324303
49	0x3d11e5d6	0.03561958
50	0x3e6c5ccc	0.23082274
51	0xbd2f772f	-0.04283827
52	0xbda6644b	-0.08124598
53	0x3bda4ebc	0.006662218
54	0x3db3f89a	0.08787651
55	0xbdb9cdc7	-0.09072452
56	0x3e785cdd	0.24254175
57	0xbd7831b1	-0.060594264
58	0x3b6dd54e	0.003629047
59	0x3da15398	0.07877272
60	0x3e4cc0d1	0.19995429
61	0x3b7bdc06	0.0038430705
62	0x3e12f393	0.14350729
63	0xbca93baa	-0.020658333

model.4.weight f4 [1, 64]
0	0x3e5ac612	0.2136462
1	0x3e211c57	0.15733467
2	0x3e268f65	0.16265638
3	0x3df224d4	0.11823431
4	0xbd8bf836	-0.06834452
5	0x3e2ec72a	0.17068163
6	0xbcf7583b	-0.030193439
7	0x3e93c963	0.28864583
8	0x3dda6c43	0.106651805
9	0xbe30035f	-0.17188786
10	0x3e6a7201	0.22895052
11	0x3e66c9de	0.22537944
12	0xbdfaf959	-0.122545905
13	0xbe58051a	-0.21095696
14	0xbda3ef92	-0.08004679
15	0x3d6491dd	0.05580317
16	0x3e10dcad	0.14146681
17	0x3e05d8ee	0.13071033
18	0xbe53ed22	-0.20695928
19	0x3e1c5b69	0.15269245
20	0x3c9a69a0	0.018849194
21	0xbe60e1ec	-0.21961182
22	0x3ea2aaa9	0.31770828
23	0xbda64ca7	-0.08120089
24	0xbda91538	-0.08256
25	0x3dee5d9e	0.1163895
26	0x3e15446f	0.14576887
27	0x3e57b5dd	0.21065469
28	0xbe3da1b9	-0.18518724
29	0x3e233cda	0.15941182
30	0x3e0530fd	0.13006969
31	0xbe66eeb9	-0.22552003
32	0x3dae79f2	0.08519353
33	0xbd855c20	-0.06511712
34	0x3e8084ad	0.25101224
35	0xbd9cdc92	-0.07659258
36	0x3dc9131f	0.098181
37	0xbe10883c	-0.1411447
38	0xbdb8c51a	-0.09021969
39	0xbd5042b7	-0.050844874
40	0xbe4ae3b9	-0.19813432
41	0x3e64040d	0.2226717
42	0xbe81f230	-0.25380087
43	0x3e481634	0.1953972
44	0xbdf1abff	-0.11800384
45	0xbde83922	-0.11339022
46	0xbe0eb65b	-0.1393675
47	0x3e5108c5	0.20413502
48	0x3e2407e8	0.16018641
49	0xbe2d4bc1	-0.16923429
50	0x3e8f47a9	0.2798436
51	0xbe831008	-0.25598168
52	0xbdb763e7	-0.08954602
53	0xbdfe8512	-0.12427725
54	0x3e2a774b	0.16647069
55	0xbe477314	-0.19477493
56	0x3e1bddbe	0.15221307
57	0xbe216dbe	-0.1576452
58	0xbdeca8f3	-0.11555662
59	0x3e72c702	0.23708728
60	0x3e268260	0.16260672
61	0xbd892407	-0.06696325
62	0x3e3bf670	0.18355727
63	0xbdf63847	-0.12022453

model.0.weight f4 [64, 3]
0	0xbed3bd51	-0.41355374
1	0xbf83427a	-1.0254662
2	0xbeee0701	-0.4648972
3	0xbf2dbe7b	-0.67868775
4	0x3d9d4585	0.076792754
5	0xbecfcfec	-0.4058832
6	0x3bd4c976	0.0064937426
7	0xbf8a96bf	-1.0827254
8	0xbe92e9aa	-0.28693897
9	0xbf5ab86f	-0.85437673
10	0x3f5164e2	0.8179456
11	0x3e98f669	0.29875496
12	0x3e9e1389	0.3087428
13	0xbec8fa63	-0.3925353
14	0x3e9277bb	0.28606972
15	0xbf1277c5	-0.57214004
16	0xbefaff8d	-0.49023095
17	0xbe5eaf9c	-0.21746677
18	0xbdd0c0ce	-0.101930246
19	0xbd560777	-0.052253213
20	0x3df180bc	0.11792132
21	0xbf1e3f17	-0.6181502
22	0x3f4f6dda	0.81026995
23	0x3efa80a2	0.48926264
24	0xbe9f769a	-0.31145173
25	0xbf8acc26	-1.0843551
26	0xbf0c14d9	-0.5471931
27	0xbf7a5602	-0.9778749
28	0xbf46c2cb	-0.7764098
29	0xbe620870	-0.22073531
30	0xbebb43c9	-0.36575153
31	0x3f8d57db	1.1042436
32	0x3ee9d6fe	0.4567184
33	0x3f203b20	0.6259022
34	0x3e8bc2f7	0.27297184
35	0xbec6d1d8	-0.38831973
36	0xbf8371e9	-1.0269138
37	0x3ec5a1cb	0.386
38	0x3eac8697	0.33696434
39	0xbf39e75d	-0.7261866
40	0xbf862380	-1.0479584
41	0xbecf46fe	-0.4048385
42	0xbe838fdf	-0.25695702
43	0x3f80e0c8	1.0068598
44	0x3e9d0055	0.30664316
45	0x3cc96349	0.024583476
46	0x3f830a10	1.0237446
47	0x3f047575	0.51741725
48	0xbf3eabca	-0.7448088
49	0xbe257dbc	-0.16161245
50	0xbda08f7d	-0.07839868
51	0xbf24391a	-0.6414963
52	0xbd4d73df	-0.05015933
53	0xbefeb0ff	-0.49744412
54	0x3e1e069e	0.15432212
55	0x3e85715b	0.26063046
56	0x3f24188f	0.64099973
57	0xbef50105	-0.4785234
58	0xbe05658d	-0.1302702
59	0x3f29ae61	0.66281706
60	0xbdccd77b	-0.10002037
61	0x3f88484e	1.0647066
62	0x3eb6f61b	0.3573464
63	0xbf10c172	-0.56545174
64	0xbed6308d	-0.41833916
65	0xbe8aaf6a	-0.27086955
66	0x3ea253d0	0.3170457
67	0xbe0a61b6	-0.13513836
68	0x3e8669da	0.26252633
69	0xbf49eaf2	-0.78874123
70	0xbf348212	-0.7051097
71	0xbeb562a1	-0.3542681
72	0xbf5e95dc	-0.8694742
73	0xbe916f41	-0.28405192
74	0xbe89d53e	-0.26920503
75	0xbd914c11	-0.07094587
76	0xbde9bf82	-0.1141348
77	0x3f2dd119	0.6789718
78	0xbf512960	-0.8170376
79	0x3f4a6daa	0.79073584
80	0x3e496ab5	0.19669612
81	0xbf2a44bc	-0.6651113
82	0xbd1aacb0	-0.037762344
83	0x3eb7f1c1	0.3592663
84	0xbe25513b	-0.16144268
85	0x3f145fc8	0.5795865
86	0x3e8901df	0.2675924
87	0xbe8bbf44	-0.27294362
88	0x3f813e0f	1.0097064
89	0x3eb6f5d9	0.35734442
90	0x3f41900c	0.75610423
91	0xbeed01d2	-0.4629045
92	0x3ea47224	0.32118332
93	0xbd4115f7	-0.047140088
94	0x3d7ee645	0.06223132
95	0xbea00860	-0.3125639
96	0xbf11f761	-0.57018095
97	0x3ef8cd03	0.48593912
98	0x3dc7ee43	0.09762242
99	0xbf645e15	-0.8920606
100	0xbc1036fc	-0.008802172
101	0xbe8c1671	-0.2736087
102	0xbf275dbd	-0.6537741
103	0x3ec46508	0.3835833
104	0xbe0007bf	-0.12502955
105	0x3daf5056	0.08560245
106	0xbf029065	-0.5100158
107	0xbe7b04c0	-0.2451353
108	0xbd090362	-0.03345049
109	0xbf2839dd	-0.6571329
110	0x3ea6151d	0.32437983
111	0xbca134a6	-0.019678425
112	0xbe85e005	-0.26147476
113	0x3e825db3	0.25462112
114	0xbf365027	-0.7121605
115	0xbec39979	-0.38203028
116	0xbea8c3ea	-0.3296197
117	0xbf653eb3	-0.89548796
118	0xbe1ce444	-0.15321451
119	0x3de69ec1	0.11260749
120	0xbece0306	-0.40236682
121	0xbf83199c	-1.024219
122	0xbee4e1e4	-0.4470359
123	0xbf12fa95	-0.5741361
124	0xbe9f5d52	-0.31125885
125	0x3e463365	0.19355543
126	0xbf2d100f	-0.6760263
127	0x3e3743ed	0.17897005
128	0x3eb48018	0.35253978
129	0xbf657d94	-0.8964474
130	0x3f2c92e1	0.6741162
131	0x3e91c2ca	0.28468925
132	0x3d80704b	0.06271418
133	0xbf38cbe9	-0.7218614
134	0xbf24cb57	-0.6437277
135	0x3b42a84f	0.002970237
136	0xbe92a9a1	-0.28645042
137	0xbf33b458	-0.7019706
138	0xbea21e90	-0.31663942
139	0xbe7b9857	-0.24569832
140	0xbde143e4	-0.10999277
141	0x3f2dc8f8	0.6788478
142	0x3e900eb4	0.28136218
143	0xbed92b9a	-0.42416078
144	0xbe8f7a2c	-0.28022897
145	0xbf3bd21e	-0.7336749
146	0xbeb55656	-0.35417432
147	0xbf3701b0	-0.7148695
148	0xbeecb39d	-0.46230784
149	0xbe44dac0	-0.19224072
150	0xbf0713be	-0.527645
151	0x3f98a881	1.1926423
152	0x3f18b780	0.59655
153	0xbf366b74	-0.7125771
154	0xbe8d07b5	-0.27544942
155	0xbf0ab14a	-0.5417677
156	0x3e76a8d6	0.24087843
157	0x3ec70873	0.38873634
158	0xbea9a3f0	-0.33132887
159	0xbf21dbf0	-0.63226223
160	0xbf886c73	-1.0658096
161	0xbecd9de6	-0.4015953
162	0xbf31fca8	-0.6952615
163	0xbf8a91ca	-1.0825741
164	0xbee42397	-0.44558403
165	0xbe8553d2	-0.26040512
166	0xbefb683f	-0.4910297
167	0xbf1cc7c5	-0.61242324
168	0xbeeb09ed	-0.4590601
169	0x3f878bee	1.0589578
170	0x3ee2da3b	0.44307122
171	0xbeb235b0	-0.34806585
172	0xbeb76757	-0.3582103
173	0xbf01b13c	-0.50661063
174	0x3f293253	0.66092414
175	0x3ed83958	0.4223125
176	0xbe367f4c	-0.17821997
177	0xbf1f51ce	-0.622342
178	0xbf0fc677	-0.5616221
179	0xbe8344a9	-0.2563832
180	0x3c77ab3b	0.015116508
181	0x3deaf70c	0.11472902
182	0xbf27e11f	-0.6557788
183	0xbf378224	-0.71682954
184	0x3f21ae9c	0.6315706
185	0x3ed3fbed	0.41403142
186	0xbf092a0b	-0.5357978
187	0xbe64ae84	-0.22332197
188	0x3edb5347	0.42836973
189	0xbee35ff8	-0.44409156
190	0x3f850326	1.0391586
191	0x3e538036	0.20654377

model.0.bias f4 [64]
0	0x3ef1c375	0.47219434
1	0x3e7ff171	0.24994446
2	0x3e8f9642	0.28044325
3	0x3f21c4d3	0.63190955
4	0xbeda7596	-0.42667836
5	0x3ef3f7da	0.47650033
6	0x3f3db4db	0.7410409
7	0xbd617fd6	-0.055053554
8	0x3ea8bad4	0.3295504
9	0x3f432300	0.7622528
10	0x3f0b9a83	0.5453264
11	0xbee10b17	-0.43953773
12	0x3f20fe51	0.62888056
13	0x3eab123e	0.33412355
14	0x3f29ed43	0.6637766
15	0xbd61eb5c	-0.055156097
16	0x3f0b4583	0.5440294
17	0x3e483392	0.19550923
18	0x3ea799d0	0.32734537
19	0x3dfe710d	0.124239065
20	0xbe2cd657	-0.16878639
21	0x3ef8f87d	0.48627082
22	0xbf129089	-0.57251793
23	0x3f4fe22a	0.81204474
24	0x3f04a273	0.5181038
25	0xbe22b323	-0.15888648
26	0x3f4e5788	0.8060231
27	0x3f3ea1f8	0.74465895
28	0x3f60ce8b	0.8781516
29	0x3f0ac184	0.5420153
30	0xbced80f4	-0.028992154
31	0xbf2198d8	-0.63123846
32	0x3f6036ad	0.8758343
33	0x3f1b0d17	0.6056685
34	0x3f1a0bc7	0.6017422
35	0x3f5b7023	0.8571798
36	0x3f12dc32	0.5736724
37	0xbf174347	-0.5908703
38	0x3f3dab6b	0.7408969
39	0x3ee6d480	0.45084
40	0x3d5240c6	0.051331304
41	0x3f41a832	0.7564727
42	0xbdf05dda	-0.11736651
43	0x3e927a31	0.2860885
44	0x3e2216a1	0.15828945
45	0x3e33a234	0.17542344
46	0x3f457419	0.77130276
47	0xbefcde33	-0.49388275
48	0xbecbe313	-0.3982168
49	0x3f078460	0.52936363
50	0x3d66a8c1	0.05631328
51	0xbeef0ede	-0.4669103
52	0xbf298421	-0.6621724
53	0xbd0f2405	-0.03494646
54	0x3e59b2e9	0.21259655
55	0xbe8ae697	-0.2712905
56	0x3f2d8c8e	0.67792594
57	0xbdff5aed	-0.124685146
58	0x3f422aea	0.7584673
59	0xbeaf25d3	-0.34208545
60	0x3f0c7523	0.54866236
61	0x3ef97161	0.48719314
62	0xbf1e6830	-0.6187773
63	0x3dfd1e9d	0.12359355

model.2.weight f4 [64, 64]
0	0x3e0cb4ae	0.13740799
1	0x3e071e3b	0.13195126
2	0x3da30c6a	0.07961352
3	0xbddfc1d3	-0.10925641
4	0x3e18af4c	0.1491062
5	0xbd4eee74	-0.050520375
6	0xbe80d62f	-0.2516341
7	0xbe1b10de	-0.15143153
8	0x3da9baa6	0.082875535
9	0x3de4db41	0.11174632
10	0xbdb89158	-0.09012097
11	0x3e0c68d7	0.13711868
12	0xbe1ec2dd	-0.15504022
13	0x3e408d39	0.18803872
14	0xbe693a54	-0.22776157
15	0xbc1648b4	-0.009172607
16	0xbdfdbe6e	-0.12389837
17	0xbd7b0681	-0.0612855
18	0xbc515bbe	-0.012778221
19	0xbe1ab190	-0.15106797
20	0x3d2dc929	0.04242817
21	0xbcfa4204	-0.030549057
22	0x3e42d9c7	0.19028388
23	0xbdb8d89c	-0.0902569
24	0xbda135b3	-0.078715704
25	0xbaae68b3	-0.0013306349
26	0xbe386051	-0.18005492
27	0xbdd84394	-0.105597645
28	0xbe33b0a1	-0.17547847
29	0xbe14067e	-0.14455602
30	0x3de59ce8	0.11211568
31	0x3e24d4cd	0.16096802
32	0xbdc24120	-0.09485078
33	0x3b257f8b	0.0025253023
34	0x3aea2d1e	0.0017866229
35	0xbd93d3c2	-0.07218124
36	0xbe2c6981	-0.16837122
37	0x3e3aaa13	0.1822894
38	0xbdf95db1	-0.12176073
39	0xbd90d317	-0.07071512
40	0x3d64ce9a	0.055861093
41	0xbd166304	-0.036715522
42	0xbe1dfdfb	-0.15428917
43	0xbd837f0c	-0.06420717
44	0xbcc38c05	-0.023870477
45	0xbc60b02e	-0.0137138795
46	0xbd28a432	-0.041172214
47	0x3e1b4313	0.15162306
48	0x3ea9b9f3	0.3314968
49	0xbd016a7c	-0.031595692
50	0x3d50b3d2	0.05095274
51	0x3d6ba64b	0.057531636
52	0xbb4149a1	-0.002949335
53	0x3e0c71ca	0.13715282
54	0x3e23b655	0.15987523
55	0x3e2a5ee4	0.1663776
56	0xbd2f6b37	-0.042826857
57	0xbd0ce18b	-0.034394782
58	0xbd32abaa	-0.043620743
59	0x3e6b287f	0.22964667
60	0xbc2b465d	-0.010453788
61	0xbdfb8d6d	-0.12282834
62	0x3c8f1b92	0.017469201
63	0xbe1eca66	-0.15506896
64	0x3dd1fa66	0.10252838
65	0xbd89631e	-0.06708358
66	0xbd46ca08	-0.048532516
67	0xbdb36efd	-0.08761404
68	0x3da53ee1	0.08068634
69	0x3e4c5fb3	0.19958381
70	0xbec2ad7d	-0.38022986
71	0x3e1acfc0	0.15118313
72	0x3e1b3482	0.15156749
73	0x3d9d5291	0.07681764
74	0xbe529c36	-0.20567402
75	0x3df47e3d	0.119381405
76	0xbe045dd0	-0.12926412
77	0x3e3383f5	0.17530806
78	0xbe322278	-0.17395961
79	0xbd1fccfa	-0.03901384
80	0x3c96c504	0.018404491
81	0x3e07a98b	0.1324827
82	0xbe0e1e7a	-0.13878813
83	0xbd253736	-0.040335856
84	0x3ddb34a1	0.107033975
85	0xbd45968a	-0.04823927
86	0x3deb6028	0.1149295
87	0xbdb8c409	-0.09021766
88	0x3dcf6aef	0.10127818
89	0xbd1e4b1a	-0.03864584
90	0xbe123f58	-0.14281976
91	0x3dbc77f3	0.09202566
92	0xbe979518	-0.29605937
93	0xbe74aa21	-0.23893024
94	0x3aaec413	0.0013333581
95	0x3e26b91a	0.16281548
96	0xbe941db4	-0.28928912
97	0xbd8b4b4e	-0.068014726
98	0x3c582626	0.013192689
99	0xbe0dfb74	-0.13865453
100	0xbdfcdb9a	-0.12346573
101	0x3e450d5b	0.19243376
102	0x3dc45b92	0.09587778
103	0x3c89300c	0.016746543
104	0x3da95e64	0.08269957
105	0xbddac707	-0.10682493
106	0x3e6beb89	0.23039068
107	0xbe093089	-0.13397421
108	0xbdfb2870	-0.12263572
109	0xbd5ce270	-0.053926885
110	0xbd982534	-0.07428971
111	0xbda505d1	-0.0805775
112	0x3eb31a97	0.34981224
113	0x3dde4f91	0.1085502
114	0x3db10d84	0.08645156
115	0x3e6ef01c	0.23333782
116	0x3e49e467	0.19716035
117	0x3e0bb6ab	0.13643901
118	0x3e48ca5f	0.19608448
119	0x3d52333e	0.0513184
120	0xbe087b89	-0.13328375
121	0x3c59bd68	0.013289787
122	0xbe539edc	-0.20666069
123	0x3ece84f9	0.40335825
124	0x3c8de0fd	0.017319197
125	0x3d1d04ba	0.038334586
126	0x3da380c7	0.07983547
127	0xbdb34f9f	-0.08755421
128	0x3daa41ef	0.08313357
129	0xbd6a6fbf	-0.057235476
130	0xbce991a3	-0.028511828
131	0xbe095df7	-0.13414751
132	0x3df68bf2	0.12038411
133	0x3cdf4fa0	0.027259648
134	0xbeb72bc5	-0.3577558
135	0xbcc90d37	-0.024542434
136	0xbd0ee649	-0.034887586
137	0x3deebd5f	0.116572134
138	0xbd91fa4f	-0.07127821
139	0xbd7ffb92	-0.062495776
140	0xbd2bf3b2	-0.041980453
141	0x3d9f5ebf	0.07781743
142	0xbe5e309b	-0.21698229
143	0x3e24a9dc	0.16080421
144	0xbd397b47	-0.045283582
145	0x3e08750f	0.13325904
146	0xbdb465e3	-0.08808496
147	0xbd1754bc	-0.036946043
148	0x3e43d125	0.19122751
149	0xbd395a15	-0.045251925
150	0x3e2f3ee1	0.1711383
151	0x3d2eb0a6	0.042648934
152	0x3db35fc4	0.087585
153	0x3d027352	0.03184826
154	0xbe4c6e43	-0.19963937
155	0xbcb4bb3a	-0.022061933
156	0xbe71daea	-0.23618665
157	0xbe8be692	-0.2732435
158	0xbcb09f6e	-0.021560397
159	0x3de2dccb	0.11077269
160	0xbea3d2b1	-0.31996682
161	0x3d8b747b	0.06809326
162	0xbd455f8c	-0.048186824
163	0xbd0185c4	-0.03162171
164	0xbe2bfaa5	-0.16794832
165	0x3e98d70e	0.29851574
166	0xbdc35086	-0.09536843
167	0x3dc7ec51	0.09761871
168	0x3d79982e	0.060936145
169	0x3d0f9b06	0.03505995
170	0x3d87bff6	0.066284105
171	0xbca7b8fd	-0.020473951
172	0xbd759f4a	-0.059966363
173	0xbcef950e	-0.02924588
174	0xbd1e5df6	-0.038663827
175	0x3d2a28d1	0.04154283
176	0x3e62d5cd	0.22151871
177	0x3d76a7df	0.060218688
178	0x3d66e835	0.056373794
179	0x3e176260	0.14783621
180	0xbbaef85f	-0.0053396667
181	0x3e81f664	0.25383294
182	0x3ea1ac2f	0.31576678
183	0x3e24fd85	0.16112335
184	0xbe68b991	-0.22727038
185	0x3e070471	0.13185288
186	0xbe870cd3	-0.26376972
187	0x3ec60236	0.38673562
188	0xbe478963	-0.19486003
189	0xbe375caf	-0.1790645
190	0x3df7a7d3	0.12092557
191	0xbe1b24a1	-0.15150692
192	0x3e277dca	0.16356578
193	0x3dfe3ed3	0.124143265
194	0x3ec703b8	0.38870025
195	0x3e8ed3a5	0.27895847
196	0xbec99f55	-0.39379373
197	0x3e720413	0.23634367
198	0x3d894810	0.06703198
199	0x3e5b6296	0.21424326
200	0x3e93a1ea	0.28834468
201	0x3edcb0a0	0.43103504
202	0x3e8be21b	0.27320942
203	0xbea4ce50	-0.32188654
204	0x3e449740	0.19198322
205	0x3e9cc064	0.30615532
206	0x3e6140fa	0.21997443
207	0x3e934d9c	0.2877015
208	0x3eb0525f	0.34437844
209	0x3dc26a6f	0.09492957
210	0xbd03d870	-0.032188833
211	0xbb836cc2	-0.0040107677
212	0x3df5baf5	0.1199855
213	0x3e76ff83	0.24120907
214	0xbe304fa1	-0.17217876
215	0x3e655d0f	0.2239878
216	0x3e4a6f7b	0.19769089
217	0xbdb3e4fa	-0.08783908
218	0x3e834b60	0.25643444
219	0x3dee5f38	0.11639255
220	0x3d8b5614	0.068035275
221	0x3ebd7f2e	0.37011093
222	0xbee85ac5	-0.45381752
223	0xbe8f9815	-0.28045717
224	0x3e01d539	0.12678994
225	0x3ca70b4d	0.02039113
226	0x3d91c2c4	0.07117227
227	0x3d091089	0.033463035
228	0x3e15a5e1	0.14614059
229	0xbeb47d6c	-0.3525194
230	0x3e3c85dc	0.18410438
231	0x3d99ca05	0.07509235
232	0x3e3a97f2	0.18222025
233	0x3d42c674	0.04755254
234	0x3dd64aa1	0.10463453
235	0x3e225e34	0.15856248
236	0x3ddb75e0	0.10715842
237	0x3e29cb94	0.16581565
238	0x3e8299fd	0.2550811
239	0xbeb4fc58	-0.35348773
240	0x3dd68c1a	0.10475941
241	0x3e4642d2	0.19361427
242	0x3ea19802	0.31561285
243	0x3d9ae6fc	0.07563588
244	0xbe313fc0	-0.17309475
245	0x3d5d72c5	0.05406453
246	0x3e9b1136	0.30286568
247	0xbcbc0a33	-0.022954082
248	0x3eb0dcdd	0.34543505
249	0xbd1e3192	-0.038621493
250	0x3c407000	0.011745453
251	0xbdaa8bc6	-0.08327441
252	0x3d1849ef	0.037179884
253	0x3e47163a	0.19442073
254	0xbcf70abd	-0.030156488
255	0x3e612e06	0.21990213

model.2.bias f4 [64]
0	0xbe13ab4f	-0.14420818
1	0xbe53bfc1	-0.20678617
2	0xbe5d5a0f	-0.21616386
3	0x3e678477	0.22609125
4	0x3e4edd96	0.20201716
5	0xbe9fe92c	-0.31232584
6	0x3cf2112f	0.02954921
7	0x3d0dfdaf	0.03466576
8	0xbd21ef91	-0.03953511
9	0xbe0198e7	-0.12655984
10	0x3e42402e	0.18969795
11	0xbe7321b3	-0.23743324
12	0xbec35f61	-0.38158706
13	0x3d91b56f	0.07114684
14	0x3edb05e2	0.42777926
15	0x3e0e537a	0.13899031
16	0x3e2c1c04	0.16807562
17	0x3e0c39cc	0.13693923
18	0x3cf6fb58	0.030149147
19	0xbe6e1a57	-0.23252235
20	0x3eae4432	0.34036404
21	0xbdd0a02b	-0.101867996
22	0x3e90b705	0.28264633
23	0x3e93c933	0.2886444
24	0xbe9af15b	-0.30262265
25	0xbea2119c	-0.3165406
26	0xbeb54664	-0.35405266
27	0x3dcc8ce0	0.09987807
28	0x3e096e4c	0.13420981
29	0x3e51fd46	0.20506772
30	0xbe42a4cf	-0.19008182
31	0x3eba108d	0.36340752
32	0xbd4847c2	-0.04889656
33	0xbea62098	-0.32446742
34	0x3e1e1117	0.15436207
35	0x3e6e6787	0.2328168
36	0xbea47621	-0.32121375
37	0xbdaf41a3	-0.08557441
38	0xbeabffbf	-0.33593556
39	0x3e283234	0.16425401
40	0x3d5b753b	0.053578597
41	0x3eada4c2	0.33914763
42	0xbe4cb0af	-0.19989274
43	0x3d947650	0.07249129
44	0xbea7d023	-0.32775983
45	0x3e8d84cb	0.27640375
46	0xbd9b7035	-0.07589761
47	0x3e2612ce	0.16218111
48	0x3e2a1914	0.16611129
49	0xbe4b2ce7	-0.19841348
50	0xbe1dd8e7	-0.15414773
51	0xbd0c6fb7	-0.034286227
52	0x3d3d8f06	0.046278976
53	0x3e495859	0.19662608
54	0x3e2e7087	0.17035113
55	0xbe93d764	-0.28875268
56	0xbe80dd38	-0.25168777
57	0xbe951721	-0.29119208
58	0x3e91e892	0.2849775
59	0x3e4dceac	0.2009837
60	0x3e9fadec	0.3118738
61	0xbd890efc	-0.06692311
62	0x3e31daaf	0.17368577
63	0x3d95d49d	0.073159434

model.4.weight f4 [1, 64]
0	0x3e68ca1f	0.22733353
1	0x3eb72a5b	0.35774502
2	0x3ea8036a	0.32815105
3	0xbebb7be7	-0.36617967
4	0xbe9c3979	-0.30512598
5	0x3ea210b8	0.3165338
6	0x3e849e87	0.25902197
7	0xbec522fd	-0.38503256
8	0x3e9acf2e	0.3023619
9	0x3e97bea2	0.2963763
10	0xbebc738d	-0.36806908
11	0x3ea9d874	0.33172953
12	0x3ebbb0d6	0.36658353
13	0xbec0f562	-0.37687212
14	0xbeaed837	-0.34149334
15	0xbeb01265	-0.34389034
16	0x3efc3d22	0.4926539
17	0xbea03c47	-0.31295988
18	0x3e966bf7	0.29379246
19	0x3ed2b275	0.41151777
20	0xbeaca207	-0.33717367
21	0x3eb8d375	0.3609883
22	0xbeb020fe	-0.3440017
23	0xbed5869c	-0.4170426
24	0x3eaed0e5	0.3414375
25	0x3eaa2675	0.33232465
26	0x3e9fbe5d	0.31199923
27	0x3e9c3b74	0.3051411
28	0x3f4645ad	0.77450067
29	0x3ebf5aa9	0.37373856
30	0x3ea2e467	0.31814882
31	0xbea9492b	-0.33063635
32	0x3ea73f8d	0.32665673
33	0x3edad5fc	0.42741382
34	0xbea2fff4	-0.31835902
35	0x3f04f6fd	0.51939374
36	0x3e87b23d	0.26503173
37	0x3e904d1f	0.2818384
38	0x3ecc1f55	0.39867654
39	0xbeda1b97	-0.42599174
40	0xbed6c40e	-0.41946453
41	0xbeb4acbb	-0.35288033
42	0x3e8e515e	0.27796453
43	0xbed0f4d5	-0.40811792
44	0x3eb255e6	0.3483116
45	0xbe9e5c94	-0.30930007
46	0x3ea7f691	0.32805303
47	0xbec24cdb	-0.3794926
48	0xbeca689c	-0.39532936
49	0xbee99a29	-0.45625427
50	0x3eaaf9a4	0.33393586
51	0x3ea2bca2	0.3178454
52	0x3e973bf6	0.29537934
53	0xbec25504	-0.37955487
54	0x3e932c05	0.28744522
55	0x3ea0e6cc	0.31426084
56	0x3ea0837c	0.31350315
57	0x3ee8b2b5	0.45448843
58	0xbed77a5b	-0.42085537
59	0xbec406e2	-0.382865
60	0xbeb20f8f	-0.34777495
61	0x3eebc482	0.4604836
62	0xbed5d9ce	-0.41767734
63	0xbec835da	-0.39103585
