lab7/LAB7_110550161_task2_ppo_pendulum.pt (torch, 41376 bytes, 10 tensors)

net.0.weight f4 [64, 3]
-0.656166 0.08572145 0.071721956 -0.5695519 -0.10111232 -0.09753189 -0.5236583 -0.023209466
0.07900423 0.6664139 0.22086628 -0.009810453 0.19030018 0.5503466 -0.2224564 -0.072405875
-0.608623 -0.19875304 0.10496015 -0.40469995 0.026794821 0.1706002 0.23238114 0.063707404
0.0806826 -0.07871397 0.015476516 -0.14664164 0.6786288 0.38505274 0.2853839 0.037040576
0.103788614 -0.15659638 -0.43270373 0.11296051 0.4155033 -0.092609935 0.4558156 -0.27640864
-0.5110968 -0.15812926 -0.44330046 -0.1209678 0.030734466 -0.46965486 -0.23613614 0.018767051
-0.42108265 -0.2872237 -0.09832372 0.14422189 0.17612176 -0.22122526 -0.1467543 0.19237238
0.12881413 0.14875814 -0.026035456 0.55978316 -0.116133265 0.44434696 0.026238542 -0.19203281
-0.062209062 -0.0101138465 0.18769482 -0.5507842 -0.19285496 -0.092650935 -0.457977 0.092217
-0.4588 -0.11392421 -0.10338577 0.40666735 -0.124212556 -0.074498735 0.12561429 -0.8144751
-0.24782032 0.3462716 -0.81771725 -0.016227566 -0.08129769 -0.26855657 0.27484557 -0.23508114
-0.36241943 -0.15611301 -0.30450666 -0.2874103 -0.060632143 -0.16549273 -0.29178318 0.5299322
-0.28736398 -0.32177663 -0.14735901 -0.28683138 0.37940574 0.15581058 0.27425584 0.3684139
0.12895437 0.25813475 0.1645688 -0.31376114 -0.4000695 -0.23529655 -0.07699641 0.49346858
0.068348356 0.01732264 -0.2360314 -0.032779112 -0.08505487 0.0053241183 0.5076955 -0.16165051
-0.029447082 0.16877139 -0.5214637 0.4723223 0.094448484 -0.1168941 0.19863258 -0.039584316
-0.06461162 -0.17595628 -0.77039236 -0.35599536 0.24149336 -0.034805663 0.07883055 -0.16882916
-0.020183155 -0.09538347 0.08380017 0.71641135 0.3109867 -0.23711109 -0.23535837 -0.32811347
-0.08652941 -0.017414844 -0.09269778 -0.10325742 0.3818144 -0.40735433 0.041923646 0.019805675
-0.5401548 -0.04405748 -0.592 0.0026144672 -0.27633923 -0.22663587 -0.08981025 -0.28109097
-0.10734061 -0.04688793 -0.08403384 0.026666556 0.4108997 -0.3553812 -0.4013938 0.032970015
-0.19262844 -0.6287631 -0.23346436 0.10669549 0.50779235 0.1761919 0.022127274 0.28176576
-0.30949897 0.19947554 -0.056860074 0.07518015 0.2602187 0.3862261 -0.08426916 -0.40930167
0.10948366 0.057755772 0.09686573 0.92824405 0.46856382 -0.22349149 -0.2022807 -0.08835017
00000000: 7ffa 27bf ba8e af3d f6e2 923d 27ce 11bf
00000010: fa13 cfbd cdbe c7bd 780e 06bf c721 bebc
00000020: f8cc a13d 1a9a 2a3f c52a 623e 06bc 20bc
00000030: 0dde 423e 84e3 0c3f 9ccb 63be 8849 94bd
00000040: b8ce 1bbf eb85 4bbe 59f5 d63d d534 cfbe
00000050: d080 db3c d2b1 2e3e 52f5 6d3e 0779 823d
00000060: eb3c a53d ca34 a1bd 3791 7d3c 3a29 16be
00000070: 9eba 2d3f a225 c53e d71d 923e dcb7 173d
00000080: 208f d43d cd5a 20be 588b ddbe d757 e73d
00000090: d9bc d43e 47aa bdbd aa60 e93e 6f85 8dbe
000000a0: 3dd7 02bf a3ec 21be 47f8 e2be f7bd f7bd
000000b0: d9c6 fb3c 9a76 f0be accd 71be 5cbd 993c
000000c0: 2598 d7be fc0e 93be f25d c9bd e7ae 133e
000000d0: 4359 343e e088 62be c246 16be 44fd 443e
000000e0: dae7 033e 0e54 183e 4f48 d5bc f34d 0f3f
000000f0: 47d7 edbd 7281 e33e 36f2 d63c 40a4 44be
00000100: eece 7ebd 8cb4 25bc 1233 403e 3100 0dbf
00000110: c57b 45be c6bf bdbd f67b eabe 44dc bc3d
00000120: d5e7 eabe 1951 e9bd ebbb d3bd b436 d03e
00000130: 2763 febd cb92 98bd 08a1 003e 7181 50bf
00000140: 9cc4 7dbe 834a b13e eb55 51bf acef 84bc
00000150: 677f a6bd 3f80 89be 8fb8 8c3e 1cb9 70be
00000160: 0a8f b9be 17dc 1fbe 4ce8 9bbe 7127 93be
00000170: 6959 78bd ed76 29be 9b64 95be a3a9 073f
00000180: 5f21 93be e8bf a4be 48e5 16be 90db 92be
00000190: 7841 c23e cf8c 1f3e 436b 8c3e bfa0 bc3e
000001a0: 9d0c 043e 3d2a 843e b984 283e 4da5 a0be
000001b0: e9d5 ccbe 94f1 70be 4bb0 9dbd eaa7 fc3e
000001c0: 39fa 8b3d 36e8 8d3c 37b2 71be 6443 06bd
000001d0: 3f31 aebd f175 ae3b 55f8 013f b687 25be
000001e0: 023b f1bc 68d2 2c3e a57e 05bf 3ad4 f13e
000001f0: 356e c13d 2d66 efbd 5766 4b3e 2a23 22bd
00000200: 1953 84bd e22d 34be 6f38 45bf 0645 b6be
00000210: 094a 773e 6290 0ebd e971 a13d 8de1 2cbe
00000220: 2557 a5bc 6958 c3bd 6c9f ab3d bc66 373f
00000230: a639 9f3e 40cd 72be c901 71be 7dfe a7be
00000240: 5536 b1bd 93a9 8ebc 55d8 bdbd a078 d3bd
00000250: 2d7d c33e bf90 d0be 21b8 2b3d 833f a23c
00000260: 9647 0abf 9e75 34bd 508d 17bf 7b57 2b3b
00000270: 567c 8dbe 3c13 68be 70ee b7bd 28eb 8fbe
00000280: 65d5 dbbd 8f0d 40bd ef19 acbd d273 da3c
00000290: 7261 d23e 86f4 b5be 7d83 cdbe 910b 073d
000002a0: 6440 45be 9ef6 20bf 4811 6fbe 2a83 da3d
000002b0: aefe 013f a66b 343e 4244 b53c 9a43 903e
000002c0: a676 9ebe 5143 4c3e 1ce6 68bd 0df8 993d
000002d0: 633b 853e 6dbf c53e 4f95 acbd fd8f d1be
000002e0: f838 e03d 5191 6c3d 8a61 c63d 67a1 6d3f
000002f0: 99e7 ef3e f4da 64be ac22 4fbe eff0 b4bd

net.0.bias f4 [64]
0.032597005 0.2343987 -0.31017342 0.05036413 -0.13962938 0.004759446 -0.24251848 -0.44905797
0.37312427 -0.14600566 -0.33627722 0.26301098 0.21989499 0.15525293 -0.095002525 0.13508973
0.22062135 0.011576202 -0.37868798 0.13126312 -0.48056486 -0.42308685 -0.23097114 0.33292845
0.26268312 -0.22350296 0.13444355 -0.036475394 -0.12444074 0.22381102 0.11915944 0.10944674
0.33237424 0.25876248 -0.167889 0.023696488 0.097017944 -0.13054408 0.28151184 0.14707103
0.16099885 0.15596543 0.37144136 -0.053414196 -0.28033248 0.2565098 -0.09464966 -0.041639563
0.3927742 -0.12347187 -0.10801473 0.15840335 0.25209588 0.31313166 0.06990671 0.12620626
0.26706067 -0.24079242 0.20684466 -0.15965608 -0.31380558 -0.31140798 -0.035998594 0.16270682
00000000: 7084 053d 3606 703e 0dcf 9ebe 9e4a 4e3d
00000010: 01fb 0ebe 20f5 9b3b c456 78be edea e5be
00000020: 250a bf3e 8282 15be 872c acbe 60a9 863e
00000030: 272c 613e a0fa 1e3e af90 c2bd f654 0a3e
00000040: 90ea 613e 1caa 3d3c 64e3 c1be d769 063e
00000050: 990c f6be d79e d8be b383 6cbe 9975 aa3e
00000060: 677e 863e f6dd 64be 92ab 093e 3967 15bd
00000070: c9da febd b72e 653e dd09 f43d 9d25 e03d
00000080: f52c aa3e 847c 843e 18eb 2bbe 231f c23c
00000090: 58b1 c63d 59ad 05be 5222 903e ca99 163e
000000a0: e2dc 243e 67b5 1f3e 902d be3e d8c8 5abd
000000b0: bd87 8fbe 4155 833e aed7 c1bd 3f8e 2abd
000000c0: b319 c93e d2de fcbd d436 ddbd 7d34 223e
000000d0: b612 813e cb52 a03e 402b 8f3d 373c 013e
000000e0: 2dbc 883e 4a92 76be 16cf 533e e27c 23be
000000f0: 20ab a0be de70 9fbe 4373 13bd 9e9c 263e

net.2.weight f4 [64, 64]
0.38280138 0.3411174 0.33929932 -0.37365392 0.13778792 0.09657556 0.44496942 -0.09325325
-0.2860895 -0.17205122 0.31120116 0.31259963 -0.14651124 0.127986 -0.08330037 0.10218651
-0.16051437 -0.2197734 0.17342204 -0.24742109 -0.08833882 0.25734743 -0.19352622 0.25342607
0.13146035 -0.44762334 -0.17196156 0.07591847 -0.13410331 0.13995863 -0.032111797 -0.20820303
-0.00048076667 0.087012 0.28270566 0.20068675 -0.01359907 -0.13458036 -0.3049749 -0.014124296
-0.061731823 -0.12955132 -0.008970752 0.17703311 -0.034933217 0.04893748 -0.013066139 0.48984796
0.09076125 0.017968873 0.21753702 0.18430805 -0.07804639 -0.0023565819 0.13279718 0.20378113
-0.040187202 -0.10856129 0.17433204 0.11351851 0.3008687 0.32747656 -0.29077864 -0.15197794
-0.14203551 0.21982813 -0.1203366 0.3049584 -0.08777841 -0.13255729 0.32303274 0.113137916
0.16317484 0.21192828 -0.18986204 0.09368623 0.31577572 -0.2860868 -0.21676935 -0.1660743
0.2611756 -0.30629033 -0.19971016 0.19723468 -0.2646643 -0.011724265 -0.023864344 0.114920475
-0.22625755 0.26549917 0.15946203 0.28765193 0.16190448 -0.43848544 -0.111343734 0.027513107
0.047815923 -0.10341147 0.0207606 -0.07849027 -0.09306992 -0.065208755 0.21828341 0.0008610362
-0.25989208 0.11966982 0.10743179 -0.20895797 -0.10560861 0.13878705 0.3108227 0.1518947
0.21397609 -0.25359493 0.0852808 -0.21953863 -0.32070142 0.021385454 -0.036009125 -0.24297759
-0.19182771 -0.07421023 -0.1557264 -0.4101801 0.045046236 -0.25597754 -0.12906644 -0.022333728
0.35058832 0.0753185 0.07688949 -0.07993056 -0.12503658 -0.17215866 -0.38473248 -0.14588156
-0.15924966 0.37101245 -0.05312689 0.3056343 -0.21756335 -0.11687923 0.055694975 0.10899913
0.2053639 0.03968192 0.046639994 0.0481333 -0.2054842 -0.17311855 -0.36231816 0.5189687
0.01699817 -0.2224023 -0.27893072 -0.56229913 -0.37042052 -0.018145137 -0.17244928 0.070460856
0.13201435 0.4191168 -0.1544789 0.16790843 -0.019839257 -0.31864604 0.22249898 -0.086686306
-0.18165842 0.1390244 -0.09856469 -0.34103146 -0.061836474 0.21668173 0.4373207 -0.10414663
0.16618805 0.25003383 0.05849697 0.056456793 0.34769583 0.5488387 -0.16132411 0.011948753
-0.3245329 0.15730888 0.22815926 -0.12038486 -0.08061582 0.03779086 0.5007836 -0.17114782
-0.15749559 -0.4697815 -0.009572781 -0.16603446 -0.31446114 0.16277127 -0.12772436 -0.2531777
0.14159961 0.039879087 -0.031084958 0.21039231 0.62949926 0.14715889 -0.16223711 -0.12966602
-0.02741214 -0.08580393 -0.21887152 0.4532748 0.056536347 -0.2394686 -0.03829479 0.29194933
-0.10333131 0.1828005 -0.037198905 0.12649871 0.14258522 -0.16114892 -0.2638797 0.23406173
-0.105459586 0.20453323 0.13312756 -0.3538592 -0.4357272 0.30502367 0.011027772 -0.19864519
-0.09427152 0.028053707 0.100115746 -0.28221214 0.06362113 -0.1455563 0.3003489 -0.12008083
0.0015149498 0.19323279 -0.06889367 -0.13150634 0.020566983 -0.106952876 0.43390772 -0.28638166
0.058433466 -0.29991356 0.12153896 0.024851048 -0.034427803 -0.27450904 -0.037975065 -0.30992377
00000000: 8bfe c33e f1a6 ae3e a4b8 ad3e 914f bfbe
00000010: 4718 0d3e 68c9 c53d 08d3 e33e 8ffb bebd
00000020: 537a 92be 322e 30be c255 9f3e 0f0d a03e
00000030: 0b07 16be c30e 033e 6299 aabd 2947 d13d
00000040: e15d 24be 470c 61be 8c95 313e f45b 7dbe
00000050: fcea b4bd 0bc3 833e bd2b 46be 10c1 813e
00000060: 8b9d 063e e32e e5be b116 30be 257b 9b3d
00000070: 6152 09be 5151 0f3e a987 03bd 2d33 55be
00000080: 690f fcb9 5933 b23d ccbe 903e d480 4d3e
00000090: a2ce 5ebc 6fcf 09be ac25 9cbe 9769 67bc
000000a0: 82da 7cbd 1aa9 04be 10fa 12bc 2b48 353e
000000b0: 2216 0fbd ab72 483d 5c13 56bc 5acd fa3e
000000c0: 09e1 b93d 7533 933c 06c2 5e3e 40bb 3c3e
000000d0: c9d6 9fbd e270 1abb fcfb 073e 00ac 503e
000000e0: 569b 24bd 6255 debd 1984 323e 647c e83d
000000f0: 760b 9a3e 02ab a73e f0e0 94be 1ba0 1bbe
00000100: c271 11be a01a 613e 0973 f6bd 8223 9c3e
00000110: 2bc5 b3bd 19bd 07be 8c64 a53e dab4 e73d
00000120: 4e17 273e ba03 593e 326b 42be 91de bf3d
00000130: 5bad a13e f879 92be c9f8 5dbe 620f 2abe
00000140: cfb8 853e 16d2 9cbe d280 4cbe e3f7 493e
00000150: 1482 87be 2217 40bc 287f c3bc 6d5b eb3d
00000160: 0fb0 67be 82ef 873e 044a 233e 1d47 933e
00000170: 4aca 253e 2a81 e0be 2f08 e4bd 2b63 e13c
00000180: a1da 433d 65c9 d3bd 2212 aa3c 82bf a0bd
00000190: 719b bebd 2b8c 85bd b085 5f3e 29b7 613a
000001a0: 9310 85be 7315 f53d 3305 dc3d 14f9 55be
000001b0: 5449 d8bd 311e 0e3e 2724 9f3e 498a 1b3e
000001c0: 8c1c 5b3e 32d7 81be b3a7 ae3d bcce 60be
000001d0: fa32 a4be 8c30 af3c 4e7e 13bd 1ecf 78be
000001e0: 7c6e 44be 88fb 97bd be76 1fbe 2003 d2be
000001f0: 6782 383d 7d0f 83be fe29 04be 39f5 b6bc
00000200: 5080 b33e 9640 9a3d 3d78 9d3d a2b2 a3bd
00000210: 9709 00be 5c4a 30be a8fb c4be fa61 15be
00000220: 5812 23be 58f5 bd3e 959b 59bd 197c 9c3e
00000230: edc8 5ebe 615e efbd 6a20 643d f03a df3d
00000240: ea4a 523e 8289 223d 9409 3f3d 6c27 453d
00000250: 736a 52be fd45 31be c481 b9be 22db 043f
00000260: bf3f 8b3c 6ebd 63be 02d0 8ebe d6f2 0fbf
00000270: c2a7 bdbe 1ca5 94bc 8b96 30be c84d 903d
00000280: c52e 073e 7a96 d63e b72f 1ebe 30f0 2b3e
00000290: f085 a2bc 9325 a3be c6d6 633e 9788 b1bd
000002a0: aa04 3abe 6a5c 0e3e 49dc c9bd ad9b aebe
000002b0: 3e48 7dbd d1e1 5d3e 80e8 df3e d44a d5bd
000002c0: 332d 2a3e 6f04 803e 859a 6f3d 3d3f 673d
000002d0: 3005 b23e b180 0c3f 2632 25be b4c4 433c
000002e0: 2d29 a6be 9415 213e 95a2 693e 568c f6bd
000002f0: e819 a5bd 97ca 1a3d 5b33 003f 6041 2fbe
00000300: 8646 21be 3387 f0be 27d7 1cbc f004 2abe
00000310: 0d01 a1be 83ad 263e 2dca 02be 82a0 81be
00000320: 7dff 103e 4158 233d e2a5 febc 1571 573e
00000330: dd26 213f d2b0 163e 7c21 26be 2bc7 04be
00000340: 6d8f e0bc f9b9 afbd db1f 60be a213 e83e
00000350: a892 673d 4237 75be ffda 1cbd 627a 953e
00000360: 5e9f d3bd 0e30 3b3e e15d 18bd e188 013e
00000370: dc01 123e 3904 25be 3d1b 87be e1ad 6f3e
00000380: 32fb d7bd 2971 513e 9752 083e 082d b5be
00000390: a317 dfbe 102c 9c3e d4ad 343c a569 4bbe
000003a0: 6d11 c1bd e3d0 e53c 7c09 cd3d 1c7e 90be
000003b0: cc4b 823d b60c 15be 55c7 993e f0ec f5bd
000003c0: 4891 c63a d1de 453e 2018 8dbd 99a9 06be
000003d0: 177c a83c 1c0a dbbd 2729 de3e 9ea0 92be
000003e0: ee57 6f3d 458e 99be 6be9 f83d 6d94 cb3c
000003f0: 2b04 0dbd 738c 8cbe be8b 1bbd 54ae 9ebe

net.2.bias f4 [64]
-0.12006191 0.05296099 0.20801224 0.19219817 -0.09382358 0.1892378 -0.051569186 -0.15001939
0.34072188 0.12011276 -0.17878374 0.06837804 -0.090745024 0.20690754 -0.026775043 0.30411807
-0.20123012 0.0425362 -0.07029712 -0.14083171 -0.19554724 0.24578066 0.06889642 0.11835231
-0.16351369 -0.04558037 0.21710154 0.009585469 -0.020686414 -0.20430617 0.06626112 -0.22957672
0.21493626 0.15582736 0.13428836 -0.017932214 0.16438192 0.024437672 -0.1401866 -0.14821167
0.19584727 0.02281644 -0.12547123 0.1751818 -0.043724302 -0.13567571 0.045269124 0.027561046
-0.19019073 0.1542328 0.025043108 0.15280704 0.18706518 -0.071516894 0.1852259 -0.14925018
-0.2661481 0.14481403 0.08813191 -0.057732217 0.082734555 0.1675709 0.03138223 0.18163551
00000000: 05e3 f5bd a0ed 583d 2901 553e 99cf 443e
00000010: 9426 c0bd 8ec7 413e 363a 53bd af9e 19be
00000020: 1973 ae3e aefd f53d 1613 37be c909 8c3d
00000030: 87d8 b9bd 92df 533e 5657 dbbc 5db5 9b3e
00000040: 450f 4ebe 703a 2e3d f0f7 8fbd 3036 10be
00000050: 893d 48be edad 7b3e 9119 8d3d b262 f23d
00000060: 2270 27be 7bb2 3abd de4f 5e3e 5f0c 1d3c
00000070: 8e76 a9bc a335 51be e9b3 873d 2916 6bbe
00000080: 4018 5c3e 3591 1f3e e382 093e 94e6 92bc
00000090: bc53 283e 8331 c83c 138d 0fbe cdc4 17be
000000a0: 308c 483e 8be9 ba3c 887b 00be dc62 333e
000000b0: 4118 33bd 93ee 0abe 1e6c 393d b4c7 e13c
000000c0: 5cc1 42be 34ef 1d3e 3427 cd3c 7379 1c3e
000000d0: 048e 3f3e 7377 92bd dcab 3d3e 0ad5 18be
000000e0: 9044 88be 214a 143e 817e b43d 9e78 6cbd
000000f0: bc70 a93d b597 2b3e a78a 003d a9fe 393e

mu_head.weight f4 [1, 64]
-0.17941143 0.13249786 -0.32291874 0.16007872 0.103435844 0.2526326 0.0636572 0.1250765
0.2586155 -0.28353545 -0.16266108 -0.25168422 -0.113387056 0.25659743 -0.16479082 0.19271198
0.17017181 0.14779994 0.12549406 -0.15117384 0.19310534 0.27654994 0.14262089 -0.14545143
0.26833928 0.08272514 -0.17334986 0.096122175 -0.12036392 -0.33487135 0.21821764 -0.22506553
0.20581883 0.2273207 0.20953792 0.10128789 0.13151495 -0.018512623 -0.18871006 0.20410743
-0.1434136 0.10163475 -0.17237428 -0.29292363 -0.022491554 0.14753862 -0.09669424 0.19412613
-0.10145532 -0.15934625 0.11777641 0.13345207 -0.06483084 -0.2929764 -0.103288114 0.14699832
-0.24085821 0.12071192 0.066724904 0.12639005 -0.15780367 -0.1571279 0.03989803 -0.24382964
00000000: a1b7 37be 85ad 073e 9b55 a5be adeb 233e
00000010: 2cd6 d33d 0f59 813e b55e 823d 0e14 003e
00000020: 4069 843e 8f2b 91be a090 26be c1dc 80be
00000030: 7937 e8bd bd60 833e edbe 28be 4a56 453e
00000040: 8541 2e3e de58 173e 8481 003e 51cd 1abe
00000050: 68bd 453e f497 8d3e 360b 123e 38f1 14be
00000060: c463 893e cc6b a93d a082 31be b4db c43d
00000070: 5c81 f6bd 4274 abbe 7274 5f3e 9477 66be
00000080: 2cc2 523e c2c6 683e 1c91 563e 0670 cf3d
00000090: dbab 063e c9a7 97bc 363d 41be 8a01 513e
000000a0: 04db 12be e125 d03d e282 30be 16fa 95be
000000b0: 3540 b8bc 5d14 173e a107 c6bd 00c9 463e
000000c0: cfc7 cfbd aa2b 23be c234 f13d a9a7 083e
000000d0: 08c6 84bd 0101 96be b888 d3bd ba86 163e
000000e0: 89a3 76be d037 f73d 11a7 883d 656c 013e
000000f0: 4997 21be 23e6 20be 1e6c 233d 7aae 79be

net.0.weight f4 [64, 3]
-1.4100106 -0.94257754 -0.6074075 -0.47919255 -1.0314956 -0.45369518 1.1389216 1.2540355
0.5355476 -0.28499243 1.006831 -0.11032769 -1.0362369 -0.03819645 0.1848172 0.21980356
-1.273323 0.12664175 1.0293611 -2.7959745 -0.6937658 -0.46439525 0.4220646 0.049363684
0.46508572 -0.29587427 0.05783265 0.34042776 0.8213299 -0.5288672 -0.1231614 -0.55814433
0.09228392 0.9626129 -2.0829926 -0.4565109 -0.29001918 -1.2373866 0.12953565 0.37941495
0.9010581 -0.27961892 1.2415316 -0.6876068 0.044821225 -0.4001801 -0.9359877 0.16176903
0.6077539 -0.90803736 0.21352684 -1.2949058 0.03937654 0.1768257 1.0327245 1.3997391
0.3751986 -0.2471278 -0.9944666 0.39540333 -0.86282647 -0.18184759 -0.35747853 -0.4277254
-1.3233227 -0.32309124 -0.2693783 -1.1484853 0.14097382 0.0732795 1.0300435 -0.11757737
0.42133364 1.5765644 0.36380866 -2.353266 -0.11678837 0.272352 0.75956595 0.10604696
0.23024188 1.019848 0.6702134 -0.3792185 -0.45455778 0.19911407 0.6241376 -0.12374297
0.122516274 -0.059536826 -0.14039055 -0.9361685 0.24004996 0.47270328 0.48837557 0.112860985
-0.87367874 0.7389336 -0.12672465 0.25735593 1.0456564 -0.13920602 -0.6073327 -1.6283554
-0.5501959 -0.08919153 1.2294253 -0.19520456 -0.48728517 -0.26909882 0.038094487 1.5222981
-0.8269199 -0.46274668 0.09959039 0.9664238 -0.15691432 -0.51543033 -1.9761589 -0.40927657
0.27659214 -0.5566979 0.5537619 -0.44830826 0.89079356 0.10775152 -0.80982727 0.36814776
-0.00752077 -0.41577876 -0.54747194 -0.20066221 0.74235475 -0.20159508 -0.008905201 -0.014847091
1.3331892 -0.176339 -1.1480289 -0.33968672 0.26456034 -1.2437952 -0.43226817 -0.4286126
-1.306882 -0.84209967 -0.40424094 0.56080747 -0.8017045 0.09678068 0.3956028 0.91065
0.3317379 -0.85421515 0.489872 -0.105847545 -0.56551343 -1.259192 -0.189228 -0.74482393
2.175193 0.59331626 -0.2479404 -1.9609448 -0.5899943 1.5923951 -1.7235817 -0.433308
-0.23331875 0.616264 -0.062398586 0.8974244 -0.19668023 -0.18695253 0.106184855 -0.5726768
0.12955521 -1.0874656 -0.69291294 -0.24797554 -0.97100693 0.94838846 1.0310944 0.9947389
1.7181696 0.36287603 0.0525193 -0.26916245 -0.014823399 -0.17679758 0.5364403 -0.25566524
00000000: 3a7b b4bf c34c 71bf 0f7f 1bbf ba58 f5be
00000010: 0c08 84bf bc4a e8be 2fc8 913f 3c84 a03f
00000020: a619 093f 87ea 91be d7df 803f 7cf3 e1bd
00000030: 69a3 84bf e173 1cbd b840 3d3e 2f14 613e
00000040: 40fc a2bf 60ae 013e 1bc2 833f 3ff1 32c0
00000050: a39a 31bf 37c5 edbe da18 d83e 9331 4a3d
00000060: b71f ee3e d57c 97be eee1 6c3d 8c4c ae3e
00000070: ad42 523f d763 07bf 0b3c fcbd 8ce2 0ebf
00000080: 5aff bc3d cd6d 763f c04f 05c0 ccbb e9be
00000090: 657d 94be af62 9ebf fea4 043e ad42 c23e
000000a0: beab 663f 362a 8fbe 82ea 9e3f 0007 30bf
000000b0: 7696 373d 68e4 ccbe e49c 6fbf c8a6 253e
000000c0: c295 1b3f 2375 68bf c8a6 5a3e 79bf a5bf
000000d0: 4b49 213d cc11 353e 5130 843f a72a b33f
000000e0: 081a c03e 120f 7dbe 5d95 7ebf 4e72 ca3e
000000f0: 32e2 5cbf 4136 3abe 6d07 b7be d3fe dabe
00000100: a362 a9bf 376c a5be f4eb 89be 9101 93bf
00000110: 715b 103e 9013 963d 77d8 833f 67cc f0bd
00000120: 0bb9 d73e ddcc c93f 2145 ba3e e99b 16c0
00000130: be2e efbd b971 8b3e ea72 423f 262f d93d
00000140: 87c4 6b3e 618a 823f 1b93 2b3f ed28 c2be
00000150: ccbb e8be 8fe4 4b3e 7bc7 1f3f f46c fdbd
00000160: d0e9 fa3d e3dc 73bd 8ac2 0fbe bda8 6fbf
00000170: a8cf 753e 2a06 f23e 5d0c fa3e a923 e73d
00000180: 69a9 5fbf c12a 3d3f 1bc4 01be 28c4 833e
00000190: 12d8 853f 068c 0ebe 287a 1bbf f36d d0bf
000001a0: a3d9 0cbf 0daa b6bd cf5d 9d3f b4e3 47be
000001b0: 717d f9be 52c7 89be f708 1c3d aada c23f
000001c0: 06b1 53bf 22ed ecbe 0cf6 cb3d 8d67 773f
000001d0: 26ae 20be 3ef3 03bf c6f2 fcbf b38c d1be
000001e0: 7c9d 8d3e c183 0ebf 57c3 0d3f a988 e5be
000001f0: 0c0b 643f d4ac dc3d d750 4fbf dd7d bc3e
00000200: cb70 f6bb f4e0 d4be 1f27 0cbf 657a 4dbe
00000210: f60a 3e3f f16e 4ebe 1fe7 11bc 3741 73bc
00000220: f2a5 aa3f 3692 34be 9cf2 92bf 6beb adbe
00000230: 7474 873e ae34 9fbf 4152 ddbe 1c73 dbbe
00000240: e947 a7bf d893 57bf abf8 cebe 1491 0f3f
00000250: 823c 4dbf f334 c63d 738c ca3e 5c20 693f
00000260: 8dd9 a93e d8ad 5abf 81d0 fa3e 99c6 d8bd
00000270: 7dc5 10bf 342d a1bf fcc4 41be c8ac 3ebf
00000280: 5d36 0b40 93e3 173f 17e4 7dbe 3d00 fbbf
00000290: de09 17bf 9ad3 cb3f 539e dcbf 8cda ddbe
000002a0: 1ceb 6ebe 7ac3 1d3f a995 7fbd 9bbd 653f
000002b0: 8b66 49be 7c70 3fbe 7277 d93d f29a 12bf
000002c0: 1faa 043e 1332 8bbf be62 31bf 4ded 7dbe
000002d0: e993 78bf 96c9 723f e7fa 833f 35a7 7e3f
000002e0: fbec db3f e3ca b93e 7a1e 573d a9cf 89be
000002f0: d7dd 72bc 6d0a 35be 2754 093f 8ee6 82be

net.0.bias f4 [64]
1.1149069 -0.4715275 -0.930802 -0.6093288 0.37754378 -0.14700091 0.073375955 -0.41635424
-0.57571876 -0.14344892 0.010042061 -0.060439136 0.8732071 -0.3765458 0.53887594 0.36926842
-0.85142076 0.06534769 -0.2025458 0.54057336 0.39661244 -0.31045347 0.755596 0.829173
0.42051527 -0.09567702 -0.21761905 -0.13293697 0.22314024 0.36769104 0.50614357 -0.29792896
-0.40932065 0.85373294 -0.4 0.5125334 0.94509244 -0.9605063 -0.52285063 1.2357945
-0.13495716 -0.1668581 -0.89662725 -0.29378328 -0.12583278 0.7806177 -0.380995 0.650285
0.35271925 0.5121718 -0.7071042 -0.36450842 -1.1363213 1.4119431 -0.3706133 -0.87537855
-0.2796562 -0.079506546 -0.012004943 1.0653112 0.25056127 0.22983383 1.138667 0.012505084
00000000: 45b5 8e3f 0d6c f1be 0a49 6ebf f9fc 1bbf
00000010: 6b4d c13e 6887 16be 2246 963d 622c d5be
00000020: 4e62 13bf 46e4 12be 7587 243c 078f 77bd
00000030: 808a 5f3f 9cca c0be c6f3 093f c010 bd3e
00000040: b6f6 59bf 02d5 853d 2b68 4fbe 0463 0a3f
00000050: c910 cb3e c2f3 9ebe bd6e 413f af44 543f
00000060: c74d d73e 50f2 c3bd 87d7 5ebe a120 08be
00000070: e07e 643e 0042 bc3e a092 013f 258a 98be
00000080: 7a92 d1be 3e8e 5a3f cdcc ccbe 6435 033f
00000090: 94f1 713f bee3 75bf 8ad9 05bf 842e 9e3f
000000a0: 3632 0abe dadc 2abe 5d89 65bf c36a 96be
000000b0: 4fda 00be 90d6 473f c711 c3be 1479 263f
000000c0: 9e97 b43e b11d 033f c804 35bf d9a0 babe
000000d0: fa72 91bf 8dba b43f 07c1 bdbe cf18 60bf
000000e0: 192f 8fbe 54d4 a2bd 61b0 44bc 1e5c 883f
000000f0: 9149 803e 8f59 6b3e d7bf 913f 20e2 4c3c

net.2.weight f4 [64, 64]
-0.6147016 0.28983867 0.49877468 0.41094065 0.15055016 -0.31820107 -0.65693307 -0.11980212
0.8439138 -0.44288445 -0.1985124 -0.53847146 -0.34253326 0.07763971 -0.11789663 -0.6109659
0.10775401 0.08252852 0.043178257 -0.19415718 -1.1470674 -0.20290272 0.032554448 -0.4600488
-0.4752567 -0.23961233 -0.27405745 -0.28873137 0.047941394 -0.52689964 0.10978102 0.5701471
0.25149706 -0.35307497 0.2732438 0.113924585 -0.36057448 -0.5858644 0.24702537 -0.51427996
-0.23005868 0.32875067 0.28917965 0.39264256 -0.24294327 0.2878587 0.1605056 0.47471735
0.70948255 -0.36097836 0.63807714 -0.047325395 0.7618531 -0.34242672 0.0063691386 0.42324153
0.32279003 0.74619275 -0.323916 -0.57853293 0.6611919 -0.7162083 -0.25423154 -0.24387789
-0.38719913 -0.0357495 0.21551216 0.36880052 0.8324727 -0.2123615 0.05643061 0.27000764
0.09188599 0.4691037 -0.24671188 -0.048172638 0.20513049 0.3678141 -0.68076944 -0.11123186
-0.33951497 1.0153894 0.13551146 -0.30145502 0.22112234 -0.21250802 -0.19318408 -0.17632161
0.103744365 0.1723295 -0.26023424 -0.0065923673 0.46385938 -0.5464046 0.08565163 0.055153705
0.9421857 0.39760584 -0.06146496 0.5089031 0.23959155 -0.23129103 0.4846234 -0.38825265
0.48741612 0.77801394 0.13136578 -0.15931466 -0.7856526 0.5209011 -0.1290408 -0.2929882
-0.4495015 -0.47058427 0.41253644 0.32801616 -0.0894571 0.44397557 -0.08422754 -0.53221416
0.3439639 -0.6884195 -0.09694854 -0.34074652 0.42263138 0.05280963 -0.064341635 -0.3547314
0.092956804 -0.08646631 0.059666105 -0.2814137 0.19140649 0.6182639 0.6662411 -0.74160516
0.43037847 0.076404475 0.58967936 0.55911034 0.25021085 -0.48335266 -0.33488965 0.06558905
-0.044859175 0.31443733 0.5902857 -0.029178493 -0.5251226 -0.43557757 0.530842 -0.022832194
0.17537725 0.12420503 0.18316334 0.18637806 -0.4068687 -0.5680408 0.23161197 0.31702858
0.07069522 -0.49517405 0.24515319 -0.24475943 0.27366555 0.74817264 -0.4427982 0.41673872
0.6164373 -0.043333355 0.12585054 -0.4374885 0.106626496 -0.2609769 -0.2025402 -0.09287876
-0.1345865 0.03830631 -0.0057976004 0.039250426 -0.011026302 -0.5302824 0.6714139 1.0645006
-0.09462399 0.89456 0.26426682 0.72342455 -1.0623658 0.3818542 0.32821292 -0.775991
-0.17513382 0.014476458 0.20545535 -0.3784948 -0.46792936 -0.35472238 -0.10557485 0.8530001
-0.344871 0.09620257 -0.35552403 -0.15850459 0.6818867 -0.2406885 -0.028754676 0.54304993
-0.09196348 0.03807139 0.098885156 0.34929535 0.38656074 -0.46944836 0.137955 1.1627386
0.07724327 0.0040476066 0.16008763 -0.4648147 0.36283928 0.52596116 0.32094958 -0.22946014
-0.37859297 0.8238188 -0.55610824 0.37947717 0.33905888 -1.4270387 -0.3494871 -0.07889636
-0.58022535 0.3917145 -0.42686468 0.1537758 0.09756782 0.76323485 0.82489 -0.4049885
-0.36129844 0.28487805 0.19814058 -0.43785912 -0.48415184 0.9048083 -0.25988585 -1.039492
-0.18551455 -0.58425313 -0.80084425 -0.40106907 0.33027425 0.2731276 -0.04235652 0.7680436
00000000: 165d 1dbf bc65 943e 655f ff3e d066 d23e
00000010: d229 1a3e 40eb a2be c42c 28bf d05a f5bd
00000020: bc0a 583f c0c1 e2be d646 4bbe 44d9 09bf
00000030: 8560 afbe 9101 9f3d ca73 f1bd 4368 1cbf
00000040: 22ae dc3d b604 a93d afdb 303d 24d1 46be
00000050: 1bd3 92bf bbc5 4fbe d057 053d 848b ebbe
00000060: d954 f3be ef5c 75be 4251 8cbe 99d4 93be
00000070: 325e 443d e5e2 06bf dfd4 e03d 29f5 113f
00000080: 39c4 803e 3ec6 b4be 9de6 8b3e 4b51 e93d
00000090: 389d b8be 36fb 15bf 38f4 7c3e daa7 03bf
000000a0: 8194 6bbe 0252 a83e 5b0f 943e 7208 c93e
000000b0: 1fc6 78be 3762 933e 945b 243e 270e f33e
000000c0: a6a0 353f 28d2 b8be 0659 233f 46d8 41bd
000000d0: ce08 433f 8e52 afbe 35b4 d03b 1db3 d83e
000000e0: bc44 a53e 7d06 3f3f 51d8 a5be bc1a 14bf
000000f0: df43 293f 6d59 37bf a32a 82be 20bb 79be
00000100: f73e c6be 116e 12bd 38af 5c3e 6cd3 bc3e
00000110: ee1c 553f 4b75 59be c923 673d 713e 8a3e
00000120: b92e bc3d 5c2e f03e 0aa2 7cbe ac50 45bd
00000130: ba0d 523e 2152 bc3e e846 2ebf 88cd e3bd
00000140: e8d4 adbe 48f8 813f 84c3 0a3e 5058 9abe
00000150: e56d 623e b49b 59be 0cd2 45be a78d 34be
00000160: ed77 d43d 2577 303e 6c3d 85be c904 d8bb
00000170: fa7e ed3e 2ce1 0bbf 1f6a af3d dae8 613d
00000180: 1533 713f fe92 cb3e afc2 7bbd 7947 023f
00000190: 7d57 753e 8ed7 6cbe 8f20 f83e 0dc9 c6be
000001a0: 9b8e f93e ec2b 473f c084 063e 6223 23be
000001b0: 8720 49bf c659 053f 4523 04be 8d02 96be
000001c0: 1025 e6be 6cf0 f0be fa37 d33e bcf1 a73e
000001d0: 4935 b7bd c450 e33e 7d7f acbd 303f 08bf
000001e0: 091c b03e 433c 30bf f58c c6bd 5476 aebe
000001f0: 2463 d83e e94e 583d 8cc5 83bd 5b9f b5be
00000200: 2360 be3d 4015 b1bd 7264 743d 7515 90be
00000210: 1000 443e 8b46 1e3f c78e 2a3f d6d9 3dbf
00000220: 915a dc3e f379 9c3d 3af5 163f db21 0f3f
00000230: a31b 803e 007a f7be a876 abbe 8d53 863d
00000240: 41be 37bd eefd a03e f71c 173f bc07 efbc
00000250: 6f6e 06bf 0604 dfbe 43e5 073f 950a bbbc
00000260: 1896 333e 355f fe3d 2c8f 3b3e e4d9 3e3e
00000270: 1851 d0be 1f6b 11bf b02b 6d3e 9251 a23e
00000280: a8c8 903d 7487 fdbe 7009 7b3e 37a2 7abe
00000290: e41d 8c3e 3e88 3f3f 72b6 e2be c75e d53e
000002a0: d6ce 1d3f 517e 31bd f7de 003e 7efe dfbe
000002b0: fe5e da3d c49e 85be b366 4fbe 3837 bebd
000002c0: 0bd1 09be 14e7 1c3d ccf9 bdbb 0ec5 203d
000002d0: aaa7 34bc 96c0 07bf c8e1 2b3f 8e41 883f
000002e0: 39ca c1bd e201 653f fb4d 873e 5a32 393f
000002f0: 9afb 87bf 6582 c33e 860b a83e 59a7 46bf
00000300: 4856 33be aa2e 6d3c e362 523e 12ca c1be
00000310: 7094 efbe 2c9e b5be a137 d8bd 375e 5a3f
00000320: ef92 b0be da05 c53d 3f07 b6be 074f 22be
00000330: 2090 2e3f 0c77 76be ed8e ebbc 5205 0b3f
00000340: 5957 bcbd bff0 1b3d 4d84 ca3d d7d6 b23e
00000350: 4aeb c53e 895b f0be 1344 0d3e 9ed4 943f
00000360: b831 9e3d c9a1 843b 03ee 233e 31fc edbe
00000370: 12c6 b93e 64a5 063f 8153 a43e 99f7 6abe
00000380: f0d6 c1be cae5 523f 1c5d 0ebf d54a c23e
00000390: 2099 ad3e 34a9 b6bf f9ef b2be 6a94 a1bd
000003a0: a689 14bf ce8e c83e 028e dabe 6777 1d3e
000003b0: a3d1 c73d 5c63 433f fe2b 533f a75a cfbe
000003c0: 1cfc b8be 89db 913e 5de5 4a3e 122f e0be
000003d0: c0e2 f7be 84a1 673f c20f 85be 130e 85bf
000003e0: 87f7 3dbe 9d91 15bf 2104 4dbf ed58 cdbe
000003f0: b519 a93e 61d7 8b3e 087e 2dbd 819e 443f

net.2.bias f4 [64]
-0.48910782 0.3816414 -0.25913572 0.53761965 0.44836137 -0.70063275 0.07043075 0.13169093
-0.4640006 -0.7606738 -0.43856028 -0.016188964 -0.8850623 0.75827754 -0.039338384 0.14682804
-0.57099503 0.7646652 -0.45379388 0.2796426 -0.6789787 -0.19562092 -0.68691945 0.08263005
-0.80880886 -0.16690546 -0.25015116 -0.8073282 0.77792466 -0.43902406 -0.35317412 0.22738874
0.7376835 -0.42311096 -0.49770972 0.43931243 0.6285031 -0.64090085 0.6620792 0.51388526
-0.32224295 -0.10003095 -0.019125963 0.5637138 -0.74184155 0.61141425 0.8226407 0.69552
-0.34451976 -0.09127328 -0.6885344 -0.28670016 0.0060340636 0.84909415 -0.017709514 0.6656969
0.12636028 -0.3127233 0.15209827 0.7081474 -0.1031586 0.0031047906 -0.10756921 -0.77351975
00000000: 576c fabe 8066 c33e 70ad 84be 71a1 093f
00000010: 9f8f e53e ab5c 33bf ff3d 903d fdd9 063e
00000020: 7d91 edbe 85bb 42bf f98a e0be b89e 84bc
00000030: 7193 62bf 7a1e 423f 4921 21bd 175a 163e
00000040: bb2c 12bf 19c1 433f ac57 e8be 512d 8f3e
00000050: 8cd1 2dbf da50 48be f4d9 2fbf f239 a93d
00000060: 190e 4fbf 44e9 2abe d013 80be 10ad 4ebf
00000070: 1226 473f c3c7 e0be 3dd3 b4be 98d8 683e
00000080: d3d8 3c3f 00a2 d8be cfd3 febe 8fed e03e
00000090: 94e5 203f 1412 24bf 067e 293f fc8d 033f
000000a0: 07fd a4be 07dd ccbd 0dae 9cbc 8c4f 103f
000000b0: 54e9 3dbf a585 1c3f 9598 523f 990d 323f
000000c0: e564 b0be 7ced babd ca43 30bf 5dca 92be
000000d0: 65b9 c53b 3c5e 593f 8b13 91bc 1d6b 2a3f
000000e0: 9764 013e 451d a0be a6bf 1b3e 2649 353f
000000f0: d144 d3bd be79 4b3b 3f4d dcbd 6405 46bf

net.4.weight f4 [1, 64]
-10.308343 7.686999 7.6795716 -7.0540986 9.324208 -10.303058 10.196313 7.2808013
6.9432154 6.912248 7.1061516 -6.939916 7.068275 -7.0019255 -9.761018 8.64354
7.0994215 -6.949072 7.0813327 -9.142949 7.111521 -7.403881 7.0446577 -7.9185023
6.9715157 -7.7776623 8.513738 7.1829677 -7.0222654 7.274343 -10.713494 -7.620083
-7.0095644 -9.798866 -10.202981 10.142761 -7.020574 7.0916166 -7.0103507 10.372051
-8.394984 7.1502266 7.206127 9.682325 7.1647973 -7.161871 -6.966258 -7.0142555
6.8069215 6.948155 7.3591337 8.746163 7.524177 -6.98597 -7.02435 -7.027201
9.840259 8.676233 -9.74297 -7.019274 -8.955096 -10.288438 8.984936 7.038543
00000000: f9ee 24c1 e5fb f540 0dbf f540 2dbb e1c0
00000010: f52f 1541 53d9 24c1 1924 2341 53fc e840
00000020: d22e de40 2331 dd40 9865 e340 cb13 dec0
00000030: 4f2f e240 c60f e0c0 212d 1cc1 f14b 0a41
00000040: 762e e340 cc5e dec0 479a e240 8549 12c1
00000050: 9491 e340 98ec ecc0 d66d e140 5f64 fdc0
00000060: a816 df40 9ce2 f8c0 4538 0841 dfda e540
00000070: 66b6 e0c0 6bc7 e840 796a 2bc1 b8d7 f3c0
00000080: 5a4e e0c0 28c8 1cc1 693f 23c1 c048 2241
00000090: 8ba8 e0c0 86ee e240 cb54 e0c0 ecf3 2541
000000a0: db51 06c1 a8ce e440 9898 e640 ceea 1a41
000000b0: 0546 e540 0c2e e5c0 96eb dec0 c874 e0c0
000000c0: 4dd2 d940 4957 de40 067e eb40 49f0 0b41
000000d0: 0fc6 f040 118d dfc0 7ac7 e0c0 d5de e0c0
000000e0: b371 1d41 dad1 0a41 35e3 1bc1 e59d e0c0
000000f0: 1348 0fc1 719d 24c1 4cc2 0f41 bf3b e140
